models/playoutNet.pt (torch, 556213 bytes, 9 tensors)

conv1.weight f4 [16, 15, 3, 3]
0	0x3a993624	0.0011689109
1	0x3d42e83c	0.047584757
2	0xbd91fbb8	-0.0712809
3	0xbd80ed2e	-0.062952384
4	0xbd02a8b4	-0.03189917
5	0x3cc8db78	0.024518713
6	0x3a4a11d7	0.0007708347
7	0x3d8f9103	0.07010081
8	0xbbe1aaa8	-0.006886799
9	0x3ccb9d9f	0.024855433
10	0xbcc7a29b	-0.024369529
11	0xbc83ec03	-0.01610375
12	0xbda856b2	-0.08219661
13	0xbd6844a7	-0.056706097
14	0xbd10b1e0	-0.035325885
15	0x3b83a58f	0.004017539
16	0x3d0dfeaf	0.034666713
17	0x3d550a2e	0.05201166
18	0xbd697350	-0.056994736
19	0xbd1690d9	-0.03675923
20	0x3d078576	0.033086263
21	0x3d9cbe7d	0.0765352
22	0xbc77f375	-0.015133728
23	0x3d857cb8	0.06517929
24	0xbc492269	-0.01227627
25	0x3c294cb5	0.01033323
26	0x3da17705	0.07884029
27	0xbd98c488	-0.0745936
28	0xbd4e7736	-0.050406657
29	0xbca0839e	-0.01959401
30	0xbce5ef54	-0.028068222
31	0x3da0bc0e	0.078483686
32	0xbd5ace70	-0.05341953
33	0xbd0e33fe	-0.034717552
34	0xbd67058f	-0.056401785
35	0xbda0ec86	-0.07857613
36	0xbd4e1bad	-0.050319362
37	0x3d998236	0.07495539
38	0x3d1e4b10	0.038645804
39	0x3d2c7e08	0.04211238
40	0x3b9c7e09	0.0047757667
41	0xbd34ec32	-0.044170566
42	0x3c6eddb2	0.0145792235
43	0xbda492c3	-0.08035805
44	0xbd7e36f5	-0.06206413
45	0xbd350533	-0.04419441
46	0x3d605e00	0.054777145
47	0x3d533bf8	0.051570863
48	0xbd198370	-0.037478864
49	0xbb0d6df0	-0.002158042
50	0x3d6474a4	0.0557753
51	0x3db0e94d	0.086382486
52	0x3d10f599	0.03539047
53	0x3c4d8c21	0.012545616
54	0x3d716de8	0.058942705
55	0xbd4f948f	-0.050678786
56	0x3c86740d	0.01641276
57	0xbd88a57f	-0.06672191
58	0xbd74217b	-0.059602242
59	0xbd3621b4	-0.044465736
60	0x3d1fee87	0.039045837
61	0x3d0e7e4e	0.034788422
62	0xbd519fd4	-0.051177815
63	0x3cd49fec	0.025955163
64	0x3d44fd12	0.04809291
65	0xbc26ef48	-0.010188885
66	0x3b97c271	0.0046313335
67	0x3ca82b13	0.020528352
68	0x3d5bc3ef	0.053653654
69	0x3dab8005	0.08374027
70	0xbd87a71c	-0.066236705
71	0xbd015b95	-0.03158148
72	0x3d0e03e6	0.034671687
73	0x3d923a68	0.07140046
74	0x3d9967b7	0.07490485
75	0x3d9f4c94	0.07778278
76	0x3c913bb2	0.01772866
77	0xbd996763	-0.074904226
78	0x3c05747f	0.008145451
79	0xbd5b70bc	-0.05357431
80	0xbda467e0	-0.08027625
81	0x3d9e321e	0.07724403
82	0x3d87085d	0.06593392
83	0xbdafd21b	-0.08584996
84	0x3c887787	0.016658558
85	0xbc64e8e8	-0.013971545
86	0xbc648d7f	-0.013949751
87	0xbd208811	-0.039192263
88	0x3d07c317	0.033145037
89	0xbd4f9d18	-0.050686926
90	0x3d02d492	0.031941004
91	0x3d32d45b	0.04365955
92	0x3d7cecac	0.061749145
93	0x3d0414d0	0.03224641
94	0xbdae9718	-0.085249126
95	0xbd6561b6	-0.056001388
96	0x3d30d226	0.043169163
97	0x3c950083	0.01818872
98	0xbd894054	-0.06701723
99	0xbd4afd30	-0.049557865
100	0x3da5a7e2	0.08088662
101	0x3d6d8643	0.05798937
102	0xbd199a90	-0.037500918
103	0xbcb180ab	-0.021667799
104	0xbda8035d	-0.082037665
105	0xbac03d3c	-0.0014666687
106	0xbd84bdd4	-0.06481519
107	0xbd87f071	-0.066376574
108	0xbb9b412d	-0.004737994
109	0x3c52a8da	0.01285764
110	0xbd10d12a	-0.035355724
111	0x3d48df8e	0.049041323
112	0xbd56955c	-0.052388534
113	0x3d9ed1e4	0.07754877
114	0x3d6f8522	0.058476575
115	0xbd94ad01	-0.072595604
116	0xbcaf1112	-0.021370444
117	0x3b4c72fc	0.0031196466
118	0x3c4b80ab	0.012420814
119	0x3ca56745	0.020190844
120	0x3d09d380	0.033648968
121	0x3ba5c01b	0.005058301
122	0xbd2c1d92	-0.042020388
123	0x3d225e15	0.039640505
124	0xbda92ba2	-0.082602754
125	0xbd513c96	-0.05108317
126	0xbcb13da8	-0.021635845
127	0xbd2c2339	-0.04202578
128	0xbcf7c957	-0.030247374
129	0xbd917a64	-0.07103422
130	0xbc9c7184	-0.019097097
131	0x3c924461	0.017854871
132	0xbd672b6f	-0.056437906
133	0xbb98bcfe	-0.0046612015
134	0x3d77b14f	0.06047183
135	0xbee4b52e	-0.4466948
136	0xbee290ef	-0.442512
137	0xbec46591	-0.3835874
138	0xbec835c2	-0.39103514
139	0xbea24554	-0.31693518
140	0xbe886b97	-0.26644585
141	0xbe820747	-0.25396177
142	0xbe899ae8	-0.26875997
143	0xbeaf3e3f	-0.34227178
144	0xbddfd577	-0.10929387
145	0xbdc39c46	-0.09551291
146	0xbc982b9b	-0.01857548
147	0xbd72c919	-0.059273813
148	0xbdb14eba	-0.08657594
149	0xbe0aa637	-0.13539968
150	0xbe1ab1ce	-0.1510689
151	0xbe187561	-0.14888526
152	0xbdd17f8b	-0.10229405
153	0x3d0a7bc6	0.033809446
154	0x3d1ea584	0.038732067
155	0xbe09a814	-0.13443023
156	0x3cd3d35e	0.025857624
157	0xbe2f5b9d	-0.17124791
158	0xbdef5b06	-0.11687283
159	0xbe13afaa	-0.1442248
160	0xbdd17271	-0.10226906
161	0xbdd6e9d5	-0.10493819
162	0xbf0f797a	-0.56044734
163	0xbf14ec0b	-0.58172673
164	0xbf04ab01	-0.5182343
165	0xbefcde93	-0.4938856
166	0xbf0ef6da	-0.55845416
167	0xbef7a429	-0.48367432
168	0xbf10e113	-0.56593436
169	0xbf04a9d5	-0.51821643
170	0xbeddd0fd	-0.43323508
171	0xbd3dda50	-0.046350777
172	0x3d71c333	0.059024047
173	0x3c843523	0.016138619
174	0xbdb43df2	-0.08800878
175	0x3d20a802	0.039222725
176	0xbcff3eb2	-0.031157825
177	0xbd6c8974	-0.057748273
178	0x3d40c9fa	0.04706762
179	0xbdad9501	-0.08475686
180	0x3dc3fbb6	0.095694944
181	0x3d4ce643	0.050024282
182	0x3ddb6774	0.107130915
183	0x3db1493e	0.08656548
184	0x3dadfdd5	0.0849568
185	0x3d640743	0.055670988
186	0xbb6f3a4d	-0.0036503256
187	0xbc1381f3	-0.00900315
188	0xbd859e71	-0.06524361
189	0x3e1bece2	0.15227082
190	0x3e1df858	0.15426767
191	0x3ddb8735	0.10719148
192	0x3c0c2198	0.008552931
193	0x3d071af5	0.032984693
194	0xbd56a06a	-0.052399077
195	0xbd02fbe1	-0.03197849
196	0xbd30cb7c	-0.043162808
197	0x3d12781e	0.035759084
198	0xbd9f3ef0	-0.07775676
199	0xbd02d0eb	-0.03193752
200	0xbd360eb0	-0.0444476
201	0x3cf38842	0.029728059
202	0xbe04ce10	-0.12969232
203	0xbdf2bf65	-0.11852912
204	0xbdd335ab	-0.10312971
205	0x3c29c9ae	0.010363026
206	0xbdaf0ae7	-0.08547001
207	0x3b5ca3d2	0.003366698
208	0xbd0cb3a8	-0.03435102
209	0xbd4302b6	-0.047610007
210	0xbd8baca9	-0.06820042
211	0xbda474d8	-0.08030099
212	0xbd282027	-0.041046288
213	0xbd9e7977	-0.07738011
214	0xbd4b3f5b	-0.049620967
215	0xbd26562d	-0.040609527
216	0xbdf6baca	-0.12047346
217	0xbdc06e24	-0.09396008
218	0x3caf3e1a	0.021391917
219	0xbdecb481	-0.11557866
220	0xbd3521f4	-0.044221833
221	0x3d440dfb	0.047864895
222	0xbab191eb	-0.0013547515
223	0xbccbad9a	-0.024863053
224	0xbdd65b75	-0.10466663
225	0x3c89c890	0.016819268
226	0xbd9fd6f1	-0.07804669
227	0xbd1f818c	-0.038941905
228	0xbd5ab892	-0.053398676
229	0xbcedfc91	-0.029051097
230	0xbc3d65aa	-0.011559883
231	0x3d4c178b	0.04982714
232	0xbb6acfbf	-0.0035829393
233	0x3d82ebc3	0.06392624
234	0x3ce10099	0.027466105
235	0xbd98588a	-0.074387625
236	0x3ca2058c	0.019778036
237	0xbda77865	-0.0817726
238	0xbd526620	-0.051366925
239	0x3c34dbd3	0.011038738
240	0x3c4c7b6c	0.012480598
241	0x3d5b1a77	0.053492036
242	0xbd2135ff	-0.039358135
243	0x3e166999	0.1468872
244	0x3e3cac17	0.18425022
245	0xbc9ab4a3	-0.018884962
246	0x3e41b209	0.18915571
247	0xbbd510cf	-0.006502248
248	0x3d74f14a	0.059800424
249	0x3d0db668	0.034597784
250	0x37576b24	1.2839944e-05
251	0x3d61bb95	0.055110533
252	0x3e83dc5f	0.25754067
253	0x3dffca39	0.12489743
254	0x3da2592e	0.07927166
255	0x3dd37819	0.10325641

conv1.bias f4 [16]
0	0x3d89e0fe	0.06732367
1	0xbf0598f8	-0.52186537
2	0xbd76b236	-0.06022855
3	0xbbe63ccd	-0.007026291
4	0xbe12a6b9	-0.14321412
5	0xbe1c0a6c	-0.1523835
6	0x3f1c8fbf	0.6115684
7	0xbe08cd5b	-0.13359587
8	0x3ca3c052	0.019989166
9	0xbfa7476e	-1.3068674
10	0x3e067be3	0.13133197
11	0xbd5408ef	-0.051766332
12	0x3f2bafbb	0.6706502
13	0xbd62e697	-0.05539569
14	0xbdf1fef6	-0.11816208
15	0xbd4c255a	-0.04984031

conv2.weight f4 [16, 16, 3, 3]
0	0x3d4d3750	0.05010158
1	0xbc6249bb	-0.013811524
2	0xbd0ec377	-0.03485438
3	0xbc627887	-0.013822681
4	0x3cf86eda	0.030326296
5	0xbc2d066e	-0.010560615
6	0x3d458ba6	0.048228882
7	0xbd8ae3b6	-0.06781714
8	0xbd2625c9	-0.04056338
9	0x3dd23080	0.10263157
10	0x3d5175bf	0.051137682
11	0x3d7b28f3	0.06131835
12	0x3d661c87	0.05617955
13	0x3c17827c	0.0092474185
14	0xbbc2276d	-0.00592511
15	0x3d13ec5a	0.036114074
16	0xbc95294b	-0.018208167
17	0xbcf1d871	-0.029522153
18	0x3c22a3a6	0.009926712
19	0x3c9c1ec6	0.019057643
20	0xbc015ea0	-0.0078960955
21	0xbd7086d5	-0.058722336
22	0xbc7503a8	-0.014954485
23	0xbd46a9d2	-0.048501797
24	0x3d27799c	0.04088746
25	0xbd6d3a7f	-0.057917114
26	0x3d8478cd	0.064683534
27	0x3d0034d6	0.03130039
28	0xbd96e6fd	-0.07368276
29	0x3d790697	0.0607973
30	0xbdabe78b	-0.08393773
31	0xbc002c46	-0.007823056
32	0xbd5e7931	-0.054314796
33	0xbd989028	-0.074493706
34	0x3b9081e8	0.0044100173
35	0xbd3b98d2	-0.045800038
36	0x3d806190	0.062686086
37	0xbd8606a4	-0.06544235
38	0x3d96add4	0.07357374
39	0x3d4c1f9d	0.049834836
40	0x3d96d14f	0.07364141
41	0xbccc3d76	-0.02493165
42	0xbd56ef8e	-0.05247455
43	0xbd71592e	-0.05892294
44	0x3d76b400	0.060230255
45	0xbd0c6c2a	-0.03428284
46	0xbbd0a4f8	-0.006367322
47	0xbc341d0d	-0.010993254
48	0x3c60eb4f	0.013727977
49	0xbd8d30cb	-0.06894072
50	0x3d730741	0.05933309
51	0xbd8c4d70	-0.068507075
52	0x3d896641	0.067089565
53	0xbd52e21c	-0.051485166
54	0x3e283005	0.16424568
55	0x3e54939b	0.20759432
56	0x3e7ad6ff	0.24496077
57	0x3e46531e	0.19367644
58	0x3e0baf7c	0.1364116
59	0x3e9286e0	0.28618526
60	0x3e8097c2	0.25115782
61	0x3e66e0b5	0.22546656
62	0x3e8b967a	0.27263242
63	0x3cc7f2e4	0.024407811
64	0xbbcd4ca5	-0.0062652403
65	0xbd917524	-0.07102421
66	0xbdbdaa35	-0.0926098
67	0xbd97ad3d	-0.074060895
68	0xbd2cbf30	-0.042174518
69	0x3c3d9a34	0.011572409
70	0xbd934f18	-0.0719282
71	0xbd3a486b	-0.04547922
72	0x3a717c7c	0.000921197
73	0xbd54ea8b	-0.05198149
74	0x38ef4ed1	0.00011411089
75	0x3da7f31c	0.08200666
76	0x3d8c51fe	0.06851576
77	0x3d85da4b	0.06535777
78	0xbbf8d3ad	-0.007593593
79	0x3b16f2af	0.0023032834
80	0x3d3de686	0.046362422
81	0xbd8f1bab	-0.06987699
82	0xbdaa4fda	-0.08316012
83	0x3cc04a90	0.023473054
84	0xbd645ad6	-0.05575069
85	0xbe06e9ad	-0.13175078
86	0xbbe25a11	-0.0069077094
87	0xbd71d24e	-0.059038453
88	0xbd287075	-0.041122872
89	0xbe20fc69	-0.15721287
90	0x3d1abd01	0.037777904
91	0x3dbb1311	0.09134496
92	0x3d561ba5	0.052272458
93	0x3baf6e73	0.0053537427
94	0x3e152baa	0.14567438
95	0x3e0fef92	0.14056233
96	0x3dc861de	0.09784292
97	0x3df51946	0.11967711
98	0x3df7acdb	0.120935164
99	0x3d439364	0.047747985
100	0xbc95f752	-0.018306408
101	0xbd47da29	-0.048792038
102	0x3d01fa28	0.03173271
103	0x3cb4032f	0.021974174
104	0x3d026c14	0.031841353
105	0xbc19a0bf	-0.009376704
106	0xbc393e25	-0.01130632
107	0xbbdc16c9	-0.0067165834
108	0x3dc4b98f	0.09605705
109	0x3d692393	0.05691869
110	0x3d559273	0.052141618
111	0x3dff7f14	0.1247541
112	0x3dd23f1f	0.10265946
113	0x3e17aadb	0.1481127
114	0x3dd4e40f	0.10395061
115	0x3e13021f	0.14356278
116	0x3e3f163c	0.18660825
117	0xbc4339f8	-0.011915676
118	0x3c27b7d2	0.010236697
119	0xbc85f6b4	-0.016352989
120	0xbbc0efd9	-0.005887967
121	0x3cd990be	0.026558276
122	0x3d5194b8	0.05116722
123	0xbdd7f2fc	-0.105443925
124	0xbd4caa93	-0.04996736
125	0xbdb8d607	-0.090251975
126	0xbce7c334	-0.028291322
127	0x3d5ed7d3	0.054405045
128	0xbd91c21b	-0.07117101
129	0xbd96698e	-0.07344352
130	0x3d4d7b53	0.05016644
131	0xbd22c7c7	-0.039741304
132	0x3d854e27	0.06509047
133	0x3cf60c68	0.030035213
134	0x3d07f66b	0.033193987
135	0x3d8978bf	0.067124836
136	0xbd9ea261	-0.07745815
137	0x3d8e768d	0.069562055
138	0x3ce22e99	0.02761011
139	0xbd6298fc	-0.05532168
140	0x3cd9083b	0.026493182
141	0xbcbe2be0	-0.02321428
142	0xbd04b595	-0.032399733
143	0xbb08c746	-0.002087073
144	0xbd215a8b	-0.03939299
145	0x3d953d59	0.07287092
146	0x3d92dc3b	0.07170912
147	0xbc113009	-0.00886155
148	0xbd975b6c	-0.07390484
149	0xbba4c1d3	-0.0050279885
150	0x3bb2bc83	0.0054546013
151	0x3d63b07f	0.05558824
152	0x3b31bbcb	0.002711999
153	0x3d85e3e4	0.06537607
154	0x3d7c7701	0.06163693
155	0xbc0ff28d	-0.008785856
156	0xbc9afad2	-0.018918429
157	0xbd2daaeb	-0.04239933
158	0x3ceeaf14	0.029136218
159	0x3d5d02fe	0.05395793
160	0x3cbae0ba	0.022812236
161	0x3de06a73	0.109578036
162	0xbc829bb4	-0.015943386
163	0xbd62c487	-0.055363204
164	0x3c578d3f	0.013156234
165	0xbcc3a2a5	-0.023881266
166	0xbc4b39c5	-0.01240391
167	0x3da38d08	0.07985884
168	0xbb345d3e	-0.0027521397
169	0x3d935065	0.071930684
170	0x3c2acf42	0.010425391
171	0xbcf0278e	-0.029315736
172	0x3d80a7af	0.06281983
173	0xbd39ab7c	-0.045329556
174	0x3b9cc6c8	0.0047844388
175	0x3ca71530	0.020395845
176	0x3d21a956	0.039468132
177	0xbd99a09f	-0.07501339
178	0x3bc2ba2c	0.0059426036
179	0xbcaa83fa	-0.020814884
180	0x3d675385	0.056476135
181	0x3cec0f07	0.02881576
182	0x3d0d42e0	0.034487605
183	0x3d4e0f9d	0.05030786
184	0xbc94be44	-0.018157132
185	0xbba10633	-0.004914069
186	0x3d87b32f	0.066259734
187	0xbd8811af	-0.06643998
188	0xbd665e76	-0.05624243
189	0x3bcbe86c	0.006222775
190	0xbd03304d	-0.032028485
191	0x3b800682	0.003907026
192	0x3d94d67e	0.07267474
193	0xbc184636	-0.009294083
194	0xbd92694d	-0.07148991
195	0xbd24a06c	-0.040192053
196	0x3d9c1a05	0.0762215
197	0xbca1a0b3	-0.019729948
198	0x3d29b51c	0.041432485
199	0x3dd89000	0.10574341
200	0x3d89f811	0.06736768
201	0x3a428307	0.0007420037
202	0x3e064cd3	0.13115244
203	0x3dcf9fc3	0.10137894
204	0x3e0cfbc7	0.1376792
205	0x3dd11c3a	0.10210462
206	0x3d1dfab8	0.038569182
207	0xbcac3c0f	-0.021024732
208	0x3d24f4da	0.04027257
209	0xbca1b022	-0.019737307
210	0x3c8ddf19	0.017318295
211	0xbda55b81	-0.080740936
212	0xbd480e45	-0.048841733
213	0x3cf73a2e	0.03017911
214	0xbbbeee42	-0.0058267424
215	0xbd37d9bd	-0.044885386
216	0xbd93e83b	-0.07222029
217	0x3d5b3242	0.053514726
218	0xbc84e1ad	-0.016220892
219	0xbda6b35a	-0.08139677
220	0x3da59b5e	0.080862746
221	0x3d280f9b	0.041030508
222	0xbd4a905e	-0.049454086
223	0xbd784a3e	-0.060617678
224	0x3da5805e	0.08081125
225	0x3cabfaa7	0.020993544
226	0xbd0ab9e1	-0.033868674
227	0x3d866f7e	0.06564234
228	0xbb72b6b2	-0.0037035164
229	0x3c68c108	0.0142061785
230	0xbd0561b1	-0.03256387
231	0xbd6b09bf	-0.05738234
232	0xbd39a86c	-0.045326635
233	0x3b5a16a3	0.0033277653
234	0xbe204cd4	-0.15654308
235	0xbac1705a	-0.0014758215
236	0xbdb38c7b	-0.08767029
237	0xbde3fc89	-0.11132152
238	0xbd0ee125	-0.034882683
239	0xbe0e2b83	-0.13883786
240	0xbe14623f	-0.14490603
241	0xbd880d3a	-0.06643148
242	0xbe2c24c7	-0.16810904
243	0x3d2998d9	0.041405533
244	0x3be650f7	0.0070286947
245	0xbd8e4bfc	-0.069480866
246	0xbda95b22	-0.08269335
247	0x3cd89454	0.026437916
248	0x3d2181f3	0.03943057
249	0xbc88d63d	-0.01670372
250	0xbd96fa9f	-0.07372021
251	0xbd44c6d1	-0.04804117
252	0xbdceba84	-0.10094169
253	0xbdc21f89	-0.09478671
254	0xbd94ac85	-0.07259468
255	0xbd975d9a	-0.073909

conv2.bias f4 [16]
0	0x3cf18dd7	0.02948658
1	0xbca8457a	-0.020540942
2	0xbe871fc9	-0.26391438
3	0x3cbca1c1	0.023026349
4	0xbe1b60a7	-0.15173589
5	0xbbbd29a8	-0.005772788
6	0xbe66d529	-0.22542252
7	0xbd89d91d	-0.06730864
8	0x3e2c0da2	0.16802076
9	0xbda5f74a	-0.08103807
10	0x3f084b13	0.53239554
11	0x3da91a09	0.08256919
12	0xbce759e9	-0.028241115
13	0x3d27f268	0.04100266
14	0xbeb0ae2d	-0.34507886
15	0xbe286b2b	-0.16447131

conv3.weight f4 [16, 16, 3, 3]
0	0xbdc3f262	-0.09567715
1	0x3d18288e	0.03714805
2	0x3d2398f9	0.039940808
3	0xbdc9236b	-0.098212086
4	0xbcd06a25	-0.025441239
5	0xbd37fb96	-0.044917665
6	0xbd0e1344	-0.034686342
7	0xbd321a32	-0.043482013
8	0x3a4588f5	0.0007535362
9	0xbdd417b4	-0.103560835
10	0x3d6bd3bf	0.057574984
11	0x3ba3fe1c	0.0050046574
12	0x3ccc4731	0.02493629
13	0x3b559e0f	0.003259543
14	0x3d05df21	0.032683495
15	0x3d8da7e5	0.06916789
16	0xbc821d26	-0.01588304
17	0xbdb6e863	-0.08931043
18	0xbea68fc7	-0.32531568
19	0xbeeae16c	-0.45875108
20	0xbf001d71	-0.50044924
21	0xbeb21332	-0.3478027
22	0xbec846b1	-0.39116433
23	0xbee3426f	-0.44386622
24	0xbec8e248	-0.3923514
25	0xbee0d044	-0.43908894
26	0xbeb7d549	-0.3590491
27	0x3d57270e	0.05252748
28	0x3d1eb415	0.03874596
29	0x3cfcb2f8	0.030847058
30	0xbca7c6f1	-0.020480605
31	0x3caea2a2	0.021317784
32	0xbdb167a8	-0.08662349
33	0x3dae9516	0.0852453
34	0xbd8d62f8	-0.069036424
35	0xbdc04655	-0.09388415
36	0xbdc9b1ee	-0.098483905
37	0x3d187316	0.03721913
38	0xbc0e6b4e	-0.008692576
39	0xbc6fd78d	-0.014638794
40	0x3b6aa90a	0.0035806322
41	0xbd340cb9	-0.043957446
42	0xbd2fe0ab	-0.04293887
43	0xbd8a4b63	-0.0675266
44	0xbd097a2b	-0.033563774
45	0xbdadc439	-0.08484692
46	0xbbc7af30	-0.006093882
47	0x3dcfd6a5	0.10148362
48	0xbe0e712e	-0.13910362
49	0xbc375cdf	-0.011191576
50	0xbd942331	-0.07233275
51	0xbdd39fe1	-0.10333229
52	0xbd26f9c0	-0.040765524
53	0xbb9158da	-0.0044356408
54	0x3d7b5b2f	0.061366256
55	0xbba4f61c	-0.0050342213
56	0xbd161195	-0.03663786
57	0xbd2113f7	-0.03932568
58	0x3799677b	1.8287208e-05
59	0xbd863739	-0.06553502
60	0xbd8e59b1	-0.06950701
61	0xbd1ff762	-0.039054282
62	0xbabe3b04	-0.0014513438
63	0xbd621ccc	-0.055203244
64	0xbd3f4971	-0.0467009
65	0x3d774b93	0.060374808
66	0x3da0b6c9	0.078473635
67	0xbcc75362	-0.024331752
68	0xbd8ebf0d	-0.06970034
69	0xbcfe9d08	-0.031080738
70	0x3d0fd6ab	0.035116833
71	0x3ced09f2	0.028935406
72	0x3ae6a252	0.0017595983
73	0xbd5b4532	-0.053532787
74	0xbc805e5f	-0.01567
75	0x3c9646ef	0.01834437
76	0x3d9d4fcd	0.076812364
77	0xbcbc23df	-0.022966323
78	0x3dc75829	0.09733612
79	0x3d363438	0.044483393
80	0x3b95e250	0.0045740977
81	0xbd98184b	-0.074265085
82	0x3da87e63	0.08227231
83	0xbc737613	-0.014859694
84	0x3d56c983	0.05243827
85	0xbd308edc	-0.04310499
86	0xbda63385	-0.08115295
87	0xbd880722	-0.066419855
88	0xbd2ee705	-0.042700786
89	0xbcd96220	-0.026536047
90	0xbe5a9a3e	-0.21347901
91	0xbdad9f22	-0.08477618
92	0xbe04de67	-0.12975465
93	0xbe9ebd5b	-0.31003842
94	0xbe5d7c9f	-0.2162957
95	0xbe0d153a	-0.13777629
96	0xbed29e76	-0.4113652
97	0xbe97fba2	-0.29684168
98	0xbdfd8f72	-0.12380876
99	0xbe77e048	-0.2420665
100	0xbe6effd5	-0.2333978
101	0xbe11fd37	-0.1425675
102	0xbed07bc9	-0.4071944
103	0xbeb395f2	-0.35075337
104	0xbdd118b7	-0.10209792
105	0xbedc5f9f	-0.43041703
106	0xbe9bf12c	-0.30457437
107	0xbdf2fa27	-0.11864119
108	0xbe2f08bc	-0.17093176
109	0xbdd254b5	-0.10270063
110	0xbe315dbc	-0.17320913
111	0xbe8065bf	-0.25077626
112	0xbe2e8ec8	-0.17046654
113	0xbdabdc14	-0.08391586
114	0xbea9e0cf	-0.33179328
115	0xbe3fed7f	-0.18742941
116	0xbdd15902	-0.10222055
117	0xbcc76be2	-0.024343435
118	0xbc0f3d2b	-0.008742611
119	0x3d02b5f0	0.03191179
120	0xbca998ea	-0.020702798
121	0x3c2f7b0e	0.010710491
122	0x3dd34346	0.10315566
123	0x3d911407	0.07083898
124	0x3ddb6ce3	0.10714128
125	0x3d0a1193	0.033708166
126	0xbd71232a	-0.058871426
127	0x3d149b58	0.03628096
128	0xbc253888	-0.010084279
129	0x3aed4060	0.001810085
130	0xbd417563	-0.04723109
131	0x3cc8d725	0.024516651
132	0xbd88ae35	-0.06673852
133	0x3d807b3c	0.06273505
134	0x3d8f93db	0.07010623
135	0xbc805598	-0.015665814
136	0x3dadf0d4	0.084932
137	0x3e06e019	0.13171424
138	0xbe062dda	-0.13103428
139	0xbdcafc03	-0.09911349
140	0x3d5a6fbf	0.053329226
141	0xbd945ef7	-0.072446756
142	0xbd7e8d4a	-0.062146463
143	0x3cc5ad89	0.0241306
144	0xbd281f7a	-0.041045643
145	0xbd35eba6	-0.044414185
146	0x3c999462	0.018747512
147	0xbd884c25	-0.066551484
148	0xbd85893a	-0.065203145
149	0xbda13149	-0.078707285
150	0xbd8632d6	-0.06552665
151	0xbdca63a5	-0.09882287
152	0x3b7bed2b	0.0038440924
153	0x3d84948a	0.06473644
154	0x3bf8c64e	0.007591999
155	0xbcdaa4cd	-0.026689911
156	0xbca77bcb	-0.020444771
157	0xbdd859fb	-0.105640374
158	0xbd58ab08	-0.052897483
159	0xbd42faf5	-0.047602613
160	0xbdb48447	-0.088142924
161	0xbd98a7a2	-0.074538484
162	0x3dac9a44	0.08427861
163	0x3e13a9e8	0.14420283
164	0x3da06aa8	0.07832843
165	0x3e2e74d5	0.17036755
166	0x3d87cd03	0.066309
167	0x3deae21a	0.11468907
168	0x3dcc8826	0.09986906
169	0x3e2a2ac5	0.16617878
170	0x3e4d2c5c	0.20036453
171	0x3ca085e8	0.019595101
172	0x3ccf2f96	0.025291245
173	0xbcfc57b3	-0.030803537
174	0xbbb6a68c	-0.005574053
175	0xbc9bb47e	-0.019006964
176	0xbcb6d557	-0.022318525
177	0xbda3ffe0	-0.08007789
178	0xbdbcea8d	-0.092244245
179	0xbca0e4f4	-0.019640423
180	0x3d43238b	0.04764132
181	0x3b42b35d	0.002970896
182	0x3b7ede89	0.0038889966
183	0x3c95f845	0.01830686
184	0x3cbf560c	0.02335646
185	0xbd6937e5	-0.05693807
186	0xbca7fd87	-0.020506633
187	0xbd9bd232	-0.07608451
188	0xbd8eb004	-0.06967166
189	0xbdce46e7	-0.10072117
190	0xbd18fd57	-0.03735098
191	0x3d6d4b89	0.057933364
192	0xbcd86f64	-0.026420303
193	0x3a3482eb	0.00068859634
194	0x3a3a4e29	0.00071069837
195	0x3d6c5082	0.057693966
196	0x3d6e7069	0.05821267
197	0x3d81c0d7	0.063356094
198	0xbbfc1ee6	-0.007694113
199	0xbd7639f2	-0.060113855
200	0xbbbc811d	-0.005752696
201	0xbd93ebfc	-0.07222745
202	0xbd23f459	-0.04002795
203	0xbd43ce39	-0.04780409
204	0x3d821c9d	0.06353114
205	0xbd9a11df	-0.0752294
206	0x3da60eb5	0.08108274
207	0x3d03624c	0.032076165
208	0xbd660705	-0.056159038
209	0x3d8e7efb	0.06957813
210	0xbc9716ca	-0.018443484
211	0xbd8fc23f	-0.070194714
212	0xbc3c6585	-0.0114988135
213	0x3d2806fd	0.04102229
214	0xbda58cd6	-0.08083503
215	0xbbcad35b	-0.0061897463
216	0x3d90e082	0.070740715
217	0xb95dce5f	-0.00021153082
218	0x3cf0ad2f	0.029379455
219	0xbc91999e	-0.017773446
220	0xbd4398e2	-0.047753222
221	0x3d84f31c	0.06491682
222	0xbd80e743	-0.0629411
223	0xbc1da770	-0.00962244
224	0x3c439b44	0.011938874
225	0xbd3ec13f	-0.046571013
226	0x3d24ceb3	0.040236186
227	0xbd8dbc16	-0.0692064
228	0x3da2fd85	0.07958511
229	0x3d17ff20	0.03710854
230	0xbc4160c5	-0.011802857
231	0xbd8df9a3	-0.0693238
232	0x3b285170	0.0025683306
233	0x3cf22563	0.029558843
234	0xbf86ed73	-1.0541214
235	0xbf562bac	-0.8366039
236	0xbf6ed2b4	-0.9329026
237	0xbf8a19a6	-1.0789077
238	0xbf58b782	-0.8465501
239	0xbf4f5f76	-0.81005037
240	0xbf8b1855	-1.08668
241	0xbf6a4305	-0.91508514
242	0xbf83302d	-1.0249077
243	0xbf503c41	-0.8134194
244	0xbf247988	-0.6424794
245	0xbf2e6a8b	-0.6813132
246	0xbf1dadaf	-0.61593145
247	0xbee4800f	-0.4462895
248	0xbf0fe699	-0.5621124
249	0xbf1f7c5f	-0.6229915
250	0xbf07d34e	-0.530568
251	0xbf0b4467	-0.5440125
252	0xbeedad46	-0.4642126
253	0xbea82fd8	-0.32849002
254	0xbeb6281c	-0.35577476
255	0xbebbee6a	-0.36705333

conv3.bias f4 [16]
0	0xbd2e5b92	-0.042567797
1	0x3c8205c3	0.015871888
2	0x3d046281	0.032320503
3	0xbe07ecdc	-0.13273948
4	0xbd62fcd0	-0.055416882
5	0x3d843326	0.06455068
6	0xbdf97f03	-0.12182429
7	0x3dc761d3	0.09735455
8	0xbc8adba6	-0.01695044
9	0xbe1edd60	-0.15514135
10	0xbe83b478	-0.25723624
11	0x3db14ea6	0.08657579
12	0xbdf34b69	-0.11879618
13	0xbd8412d3	-0.06448903
14	0xbd3b893c	-0.045785174
15	0xbed4c46d	-0.4155611

conv4.weight f4 [1, 16, 3, 3]
0	0xbdab1d3b	-0.08355185
1	0x3ce8d3ea	0.028421361
2	0xbea839ac	-0.328565
3	0x3e1e177d	0.15438648
4	0x3e53344a	0.20625415
5	0xbd197caa	-0.037472405
6	0x3e0f740c	0.14009112
7	0x3e86a960	0.26301098
8	0xbde436e6	-0.111432835
9	0xbfe23fd9	-1.7675735
10	0xbfb8035f	-1.4376029
11	0xc0021cfd	-2.0330193
12	0xbfcaa4d4	-1.5831552
13	0xbf9fc058	-1.2480574
14	0xbfbe1fbb	-1.4853433
15	0xc006b3a9	-2.1047156
16	0xbfc10154	-1.507853
17	0xbfe3cb5d	-1.7796437
18	0x3f07560c	0.5286567
19	0x3e150c7e	0.14555547
20	0xbd68cc9a	-0.05683575
21	0x3fc5e623	1.5460857
22	0x3f989c0e	1.1922624
23	0x3f66bcbf	0.90131754
24	0x401af4b8	2.4211864
25	0x3ffb2da1	1.96233
26	0x3fc9b696	1.5758846
27	0xbe0044e2	-0.12526277
28	0xbe0e0d3f	-0.1387224
29	0xbdd572eb	-0.104223095
30	0xbe44b5fd	-0.19210048
31	0xbe1d5043	-0.15362649
32	0xbe0f72f7	-0.140087
33	0xbe34b535	-0.1764725
34	0xbe9075ee	-0.28214973
35	0xbe958b94	-0.29208052
36	0xbe84525a	-0.2584408
37	0xbe9300d6	-0.28711575
38	0xbe3c623c	-0.18396848
39	0xbb9ce838	-0.004788425
40	0x3d49ff3f	0.049315687
41	0x3d527872	0.051384397
42	0xbdcf287e	-0.10115145
43	0xbd7d0efe	-0.061781876
44	0x3ccc5dfe	0.024947163
45	0xbe862752	-0.26201874
46	0x3a017b00	0.0004939288
47	0x3dabba09	0.08385093
48	0xbe15c965	-0.14627607
49	0x3e7079c6	0.23483953
50	0x3e61becf	0.22045444
51	0xbe0092b1	-0.12555958
52	0x3dc5a3aa	0.09650357
53	0x3e22b871	0.15890671
54	0xbd7221cc	-0.059114262
55	0x3c767a0f	0.0150437495
56	0xbbbed3be	-0.0058235815
57	0x3d2ab462	0.041675933
58	0x3dd56b45	0.10420851
59	0xbd0ea43d	-0.0348246
60	0x3d13f55a	0.036122657
61	0x3d8b6fef	0.06808459
62	0xbdcb78a1	-0.099351175
63	0xbe4d9eff	-0.20080183
64	0x3b9d897e	0.00480765
65	0xbdba7372	-0.09104051
66	0xbe1234e5	-0.1427799
67	0x3d95f571	0.07322205
68	0x3d8fb451	0.070168145
69	0x3b6f1ecd	0.0036486865
70	0x3e038ae2	0.12845948
71	0x3daefcf3	0.0854434
72	0x3d69700d	0.056991626
73	0xbe6b4c54	-0.22978336
74	0xbeba3f2a	-0.36376315
75	0x3db2291c	0.08699247
76	0x3cb62ccf	0.022238163
77	0xbe7dbe2c	-0.24779576
78	0x3db52392	0.08844675
79	0xbda8c7c9	-0.08241231
80	0xbe7cd67e	-0.24691197
81	0xbd934f79	-0.071928926
82	0x3cbfaca1	0.023397746
83	0xbd5c9fd5	-0.053863365
84	0xbd348e82	-0.04408122
85	0xbc3840ca	-0.011245916
86	0xbd9f9b12	-0.07793249
87	0xbe029abb	-0.12754337
88	0xbe19e179	-0.15027417
89	0xbe239dba	-0.15978137
90	0xbd57cdf3	-0.052686643
91	0xbc43c83d	-0.011949596
92	0xbd0c7d01	-0.0342989
93	0xbcfe9102	-0.031075004
94	0x3e369ed2	0.17834023
95	0x3be04c1e	0.0068450114
96	0xbe1e386b	-0.15451209
97	0xbcfd1805	-0.030895242
98	0xbe156444	-0.1458903
99	0xbea51d17	-0.32248756
100	0xbd749780	-0.059714794
101	0xbd5cbcf3	-0.053891134
102	0xbdd97f85	-0.106200255
103	0x3e069a6d	0.13144846
104	0x3e29f031	0.16595532
105	0x3bb2354e	0.0054384833
106	0x3dab1890	0.08354294
107	0x3e2f8564	0.17140728
108	0xbe33c567	-0.17555772
109	0xbe294c6d	-0.1653306
110	0xbdc74979	-0.09730811
111	0xbd5d5218	-0.05403337
112	0x3d7d4499	0.061832998
113	0xbb53304f	-0.003222484
114	0xbcc0921a	-0.023507167
115	0x3d17914b	0.037003797
116	0x3df1af59	0.11801023
117	0x3cc2604c	0.023727559
118	0xbd74a2c2	-0.05972553
119	0xbd7cca74	-0.06171651
120	0xbd01a241	-0.031648878
121	0x3c2859d6	0.010275325
122	0xbd8b3d12	-0.067987576
123	0x3cc5d57c	0.024149649
124	0xbc80a90b	-0.015705606
125	0x3d31938e	0.04335361
126	0x3d18a442	0.037266023
127	0xba1df883	-0.0006026106
128	0xbbe1e422	-0.0068936506
129	0x3d198202	0.0374775
130	0xbd024503	-0.031804096
131	0xbca3b4ae	-0.019983616
132	0x3d30f5b5	0.043203074
133	0xbd87c81b	-0.06629964
134	0xbc978077	-0.018493874
135	0xbca6c756	-0.020358723
136	0xbc385a15	-0.011251946
137	0xbd5ed545	-0.05440261
138	0x3dfcf9ba	0.12352319
139	0x3e0cbbbf	0.13743494
140	0xbca51cda	-0.020155359
141	0xbcdc810a	-0.026917
142	0x3cf77071	0.030204983
143	0xbe2ae797	-0.16689907

linear.weight f4 [362, 361]
0	0x3d8b695b	0.06807204
1	0x3d76156e	0.06007903
2	0xbc6cf6a3	-0.0144631
3	0x3d815a51	0.063160546
4	0xbbfabe65	-0.0076520913
5	0xbcd36d88	-0.025809065
6	0x3d546110	0.05185038
7	0xbcba3683	-0.022731071
8	0x3d808431	0.062752135
9	0x3d860042	0.06543018
10	0xbcb6e18b	-0.022324344
11	0x3d41c0e6	0.047303103
12	0x3b3329b3	0.0027338087
13	0xb97b8f6c	-0.00023990654
14	0x3cb1c332	0.021699522
15	0x3d098655	0.033575375
16	0xbcb4e282	-0.022080664
17	0x3d84b7d5	0.06480376
18	0x3d4c3474	0.04985471
19	0xbc820529	-0.015871601
20	0x3d100f5b	0.035170894
21	0x3c9e96dd	0.019359047
22	0x3d232116	0.039826475
23	0x3c2b1c9d	0.010443834
24	0x3cedcf9f	0.029029666
25	0x3cd13bd4	0.025541224
26	0x3d75987e	0.05995988
27	0x3c918a9b	0.017766288
28	0x3d56f8f9	0.052483533
29	0x3c911052	0.017707977
30	0x3cdabbe0	0.026700914
31	0x3bd220b8	0.006412592
32	0x3c15eb23	0.009150299
33	0xbcc1ac5d	-0.02364176
34	0x3d879fa6	0.066222474
35	0xbc586cbd	-0.013209519
36	0x3d293384	0.041308895
37	0x3ccf3b13	0.025296723
38	0x3d4a8e71	0.04945225
39	0xbd1c81d9	-0.03820977
40	0x3beb6879	0.007184085
41	0xbd150755	-0.036383945
42	0xbcda9f15	-0.026687184
43	0x3d06ba35	0.032892425
44	0x3a8a0d91	0.0010532608
45	0x3d448975	0.04798265
46	0x3d53a877	0.051674332
47	0x3c427e17	0.0118708825
48	0xbb95cc82	-0.0045714984
49	0x3d44ef32	0.048079677
50	0x3d82f5ab	0.06394514
51	0x3cbd975e	0.023143467
52	0xbccfa31a	-0.025346328
53	0x3d295884	0.04134418
54	0x3c23ac21	0.009989769
55	0xbcbb26f2	-0.022845719
56	0x3cd13fc2	0.025543097
57	0x3c8fe73e	0.01756632
58	0x3c76f899	0.015073919
59	0x3d8a9a13	0.067676686
60	0x3d33fd04	0.043942466
61	0x3d50a4e7	0.050938513
62	0x3c9013dd	0.017587597
63	0x3bb92298	0.005649876
64	0x3d0f34c1	0.03496242
65	0xbcc9bef7	-0.024627192
66	0x3d82dc1c	0.06389639
67	0x3ca31f49	0.019912379
68	0xbd12959d	-0.035787214
69	0xbc82774e	-0.01592603
70	0x3d2a9140	0.041642427
71	0x3cfc42c0	0.030793548
72	0x3d3ee063	0.04660071
73	0xbd01354c	-0.03154497
74	0x3c869a6c	0.016431056
75	0x3d3bd209	0.045854602
76	0x3d399890	0.04531151
77	0x3c8f5752	0.017497692
78	0xbd13cdb4	-0.036084846
79	0x3d8236eb	0.06358131
80	0x3d1c2af3	0.038126897
81	0x3d19d6b5	0.037558276
82	0x3d438573	0.04773469
83	0x3d3c4560	0.0459646
84	0x3c09959e	0.008397488
85	0x3d49c13c	0.04925655
86	0x3d4b8a2c	0.049692318
87	0x3cd3ade4	0.025839753
88	0xbce0048f	-0.027345924
89	0x3d522935	0.05130883
90	0xbc13a6e1	-0.009011955
91	0x3d82865c	0.06373283
92	0xbc65c309	-0.014023551
93	0x3c42ef4d	0.011897874
94	0xbbc8f8b4	-0.0061331633
95	0xbc533b1b	-0.01289251
96	0xbb684cdc	-0.0035446202
97	0x3d466066	0.048431776
98	0x3d06f522	0.03294862
99	0x3c2f668d	0.010705602
100	0xbce00271	-0.027344914
101	0xbc76efca	-0.015071819
102	0x3d3083c9	0.04309443
103	0xbc418e16	-0.011813661
104	0xbce5461d	-0.027987534
105	0xbc878b24	-0.01654584
106	0xbbc910f0	-0.0061360523
107	0xbc44bc77	-0.012007824
108	0x3d2524e7	0.040318396
109	0x3c5f1e52	0.013618069
110	0x3d869680	0.06571674
111	0xbd043f27	-0.03228679
112	0xbc5484fa	-0.012971157
113	0x3cfc9624	0.030833311
114	0x3d4796e5	0.04872789
115	0xbbf03bd8	-0.0073313527
116	0x3d0fd036	0.035110675
117	0xbc69a5e3	-0.014260742
118	0xbc8cbb9c	-0.017179303
119	0x3d3064fd	0.04306506
120	0x3c296b33	0.0103405
121	0xbcd5a88c	-0.026081346
122	0x3c1e1959	0.009649598
123	0x3d6c69b8	0.05771801
124	0x3cba6f6e	0.022758212
125	0xbab97d1e	-0.0014151668
126	0xb9d1a0b2	-0.00039983314
127	0xbcab337f	-0.020898579
128	0x3d309ab6	0.043116294
129	0x3c834cf3	0.016027903
130	0xbc454feb	-0.01204298
131	0x3c7c9260	0.015415758
132	0x3cee655a	0.029101063
133	0x3c9837a3	0.018581217
134	0x3c1d2306	0.00959087
135	0xbd158fa6	-0.036513947
136	0x3c5b462e	0.013383431
137	0xba312fcb	-0.0006759136
138	0x3c7b157e	0.015324948
139	0xbc8e4a1b	-0.01736932
140	0x3d075451	0.033039395
141	0xbcaad7e7	-0.020854903
142	0xbbd4718f	-0.006483264
143	0xbc6a6173	-0.01430546
144	0xbc93e794	-0.018054761
145	0x3c199908	0.009374864
146	0xbc4e42b0	-0.012589142
147	0xbc0bce63	-0.008533093
148	0x3cb3ddd9	0.021956371
149	0x3d1c8f5e	0.038222663
150	0xbc44dfcf	-0.012016251
151	0x3d28adcf	0.04118138
152	0x3d014dea	0.031568445
153	0x3d5b6e0e	0.053571753
154	0x3c8f4a3b	0.01749145
155	0x3d6ecc44	0.05830027
156	0xbcf274e9	-0.029596763
157	0x3d0941e6	0.03351011
158	0xbce6ecd9	-0.02818911
159	0x3d16b201	0.03679085
160	0xbbf002ee	-0.007324568
161	0x3a1103a5	0.0005531854
162	0x3d626ff6	0.055282556
163	0x3d72aba8	0.059245735
164	0xbb35572e	-0.0027670371
165	0xbc8af1e4	-0.016961046
166	0x3d3b5f0f	0.04574495
167	0xbb8e3f05	-0.0043410086
168	0xbbd00efc	-0.0063494425
169	0xbcc98d30	-0.024603456
170	0x3d880a24	0.06642559
171	0x3c9a1cf4	0.018812634
172	0x3cc1895c	0.023625068
173	0xbc90483e	-0.017612573
174	0x3d2475a9	0.040151272
175	0xbd00c73d	-0.03144001
176	0x3b5c590a	0.0033622407
177	0x3c173c8b	0.009230743
178	0x3d3da065	0.046295542
179	0x3c1e21e0	0.009651631
180	0x3cafa1df	0.02143949
181	0x3d5b1bac	0.053493187
182	0x3cffbab0	0.03121695
183	0x3d647860	0.05577886
184	0xbb0df090	-0.002165828
185	0x3d5360d8	0.05160603
186	0x3c4dd976	0.012564054
187	0x3c84d91f	0.016216813
188	0x3ce27015	0.027641336
189	0x3d859f55	0.06524531
190	0x3c818774	0.01581166
191	0x3c06d367	0.008229113
192	0xbbcff662	-0.00634651
193	0xbc8885ec	-0.016665421
194	0x3d489165	0.048966784
195	0x3c08960d	0.008336556
196	0x38ff25fe	0.00012166424
197	0x3ce189b6	0.027531486
198	0x3cce205b	0.025161913
199	0x3bee82d9	0.007278782
200	0x3d729ff6	0.059234582
201	0x3d40aa58	0.047037452
202	0x3ce64d86	0.028113138
203	0xbbf99e5f	-0.0076177563
204	0xbaf2d54e	-0.0018526705
205	0x3d88fc3f	0.06688737
206	0x3cfe05d8	0.031008646
207	0xbd01f05d	-0.03172337
208	0x3be061a7	0.0068475786
209	0x3cd9f106	0.026604187
210	0x3cdbc356	0.026826542
211	0x3d6ec129	0.05828968
212	0x3c8d1302	0.017220978
213	0x3c34dc92	0.011038916
214	0x3d6036ba	0.05473969
215	0x3c0926fc	0.008371111
216	0x3d051ab2	0.03249616
217	0xbcbc42c4	-0.022981055
218	0xbaf78f77	-0.001888736
219	0xbcc1d5fb	-0.023661604
220	0x3ca84bde	0.020543989
221	0xbccf2628	-0.025286749
222	0x3d6e1c0f	0.058132228
223	0xbb5564ae	-0.003256123
224	0xbc7ad6b3	-0.015309977
225	0x3cbb45cf	0.022860436
226	0xbc142793	-0.009042638
227	0xbc93b0cc	-0.01802864
228	0x3d58eb58	0.052958816
229	0x3ced292c	0.028950296
230	0x3caf79f2	0.021420453
231	0x3d21d1cd	0.039506722
232	0xbb636926	-0.0034700125
233	0x3c9ee6ce	0.019397166
234	0x3d82a309	0.06378753
235	0xbc14352b	-0.009045879
236	0x3d163faf	0.036681827
237	0x3d78f1bb	0.060777407
238	0x3c13ebd1	0.009028391
239	0x3d736bf4	0.059429124
240	0x3b401b46	0.0029313131
241	0x3c0360eb	0.0080187125
242	0x3d07c04a	0.033142366
243	0x3c499975	0.012304653
244	0x3bbadc76	0.0057025505
245	0x3bbd8d6b	0.0057846806
246	0x3cc8aa77	0.024495346
247	0xbc6da015	-0.014503499
248	0xbce09040	-0.027412534
249	0xbce5611d	-0.028000409
250	0x3d85176f	0.0649861
251	0x3c5cd0c9	0.013477513
252	0x3d10ba54	0.035333946
253	0xbd1edde0	-0.038785815
254	0x3bb8d291	0.005640336
255	0xbcd5937d	-0.026071304

linear.bias f4 [362]
0	0x3cacbf52	0.021087322
1	0x3d0c75e4	0.034292117
2	0x3d08cdda	0.03339944
3	0x3d428d18	0.04749784
4	0x3d22c28a	0.03973631
5	0x3c613729	0.013746061
6	0xbb99813d	-0.004684596
7	0x3ccd2e47	0.02504648
8	0x3cbdf41c	0.02318769
9	0x3d0f12d2	0.034930058
10	0x3d47790c	0.048699424
11	0x3d195a6f	0.03743976
12	0x3d6df3de	0.058093898
13	0x3d05db82	0.032680042
14	0x3d64e66c	0.05588381
15	0xbc4fcd21	-0.012683184
16	0x3b77d44d	0.003781575
17	0x3c8dc293	0.017304694
18	0xbc14995f	-0.00906977
19	0x3c3190f3	0.010837781
20	0x3c939d18	0.018019244
21	0x3dbd2cce	0.092370614
22	0x3d5ee94b	0.054421704
23	0x3d62825e	0.05530011
24	0x3d61f45e	0.055164687
25	0x3debc8d8	0.11512917
26	0x3d7a03c0	0.061038733
27	0x3d49cf6b	0.049270075
28	0x3d2e01a9	0.042482052
29	0x3dca2ab5	0.09871427
30	0x3d9a54b2	0.075356856
31	0x3d53980d	0.05165868
32	0x3dd9f0f3	0.106416605
33	0x3cc05199	0.023476409
34	0x3d7ce67d	0.06174325
35	0x3d353530	0.044240177
36	0x3d4b030a	0.049563445
37	0xbc5710e4	-0.013126586
38	0xbbce4cb9	-0.006295767
39	0x3dbe7d74	0.09301272
40	0x3e1445b2	0.14479712
41	0x3db65c11	0.08904279
42	0x3e28437f	0.16431998
43	0x3df034d7	0.117288284
44	0x3d87f214	0.066379696
45	0x3d26089a	0.040535547
46	0x3e08ef4a	0.13372532
47	0x3e32621e	0.17420241
48	0x3dd05ff1	0.10174549
49	0x3e2a083a	0.166047
50	0x3e0e49ce	0.13895342
51	0x3dedf89a	0.116196826
52	0x3d6dd909	0.05806831
53	0x3f1ff933	0.6248962
54	0x3df5ee80	0.12008381
55	0x3da19277	0.07889264
56	0x3d811c31	0.06304205
57	0x3b8e065b	0.0043342537
58	0x3da9ace4	0.082849294
59	0x3de8f137	0.11374133
60	0x3e285016	0.164368
61	0x3d577d75	0.05260988
62	0x3da8e4ac	0.08246741
63	0x3e171f7c	0.14758104
64	0x3d8f95c8	0.070109904
65	0x3dbfcb32	0.09364928
66	0x3de52dc4	0.1119037
67	0x3e226aa3	0.15860991
68	0x3dac26b3	0.08405819
69	0x3daa946f	0.08329093
70	0x3e0483dc	0.12940925
71	0x3dbd2684	0.09235862
72	0x3d98dbe1	0.074638136
73	0x3ed87015	0.42273012
74	0x3dd347b0	0.10316408
75	0xbc9e45ca	-0.019320387
76	0x3d8abe0b	0.06774529
77	0x3d8cbb94	0.06871715
78	0x3e1c3cd6	0.15257582
79	0x3e284174	0.16431218
80	0x3d28bb03	0.041193973
81	0x3de25d35	0.11052934
82	0x3dc9a3c6	0.098456904
83	0x3d67cbd9	0.05659089
84	0x3dba47fd	0.09095762
85	0x3d901763	0.07035711
86	0x3df3f488	0.11911875
87	0x3d90b691	0.07066072
88	0x3e100cc1	0.14067365
89	0x3db54d5d	0.088526465
90	0x3d9bbc6f	0.076043
91	0x3e191863	0.14950709
92	0x3e21db0a	0.15806213
93	0x3d3258df	0.043541785
94	0xbc52cdf7	-0.012866489
95	0x3d60fbbd	0.054927576
96	0x3dac4a17	0.08412569
97	0x3e2594db	0.16170065
98	0x3d90490a	0.07045181
99	0x3db2aa7f	0.08723926
100	0x3e127471	0.14302231
101	0x3dce5473	0.10074701
102	0x3e0c314e	0.13690683
103	0x3dc2f258	0.0951888
104	0x3d975cb0	0.073907256
105	0x3d7e783f	0.062126394
106	0x3e0101de	0.12598369
107	0x3dd270c2	0.10275413
108	0x3df266ec	0.11836037
109	0x3d75832a	0.05993954
110	0x3e0a39fd	0.13498683
111	0x3ddce3c7	0.107856326
112	0x3dc088c5	0.09401087
113	0x3d0588ba	0.032601096
114	0x3b31b099	0.0027113317
115	0x3db82280	0.08990955
116	0x3e01cae2	0.1267505
117	0x3dee5320	0.116369486
118	0x3d80b03e	0.062836155
119	0x3d628cbe	0.055310003
120	0x3ddedc4f	0.10881864
121	0x3dc1ed45	0.09469084
122	0x3da3c8a2	0.07997252
123	0x3dbea1e4	0.09308222
124	0x3e1528a6	0.14566287
125	0x3e08ab32	0.13346556
126	0x3dbdb15a	0.09262343
127	0x3deb28d9	0.114824004
128	0x3e0f6702	0.14004138
129	0x3dc6114f	0.0967127
130	0x3dba13e6	0.090858266
131	0x3d11eff4	0.035629228
132	0x3d17f042	0.037094362
133	0x3c32bc22	0.010909112
134	0x3d9ec704	0.07752803
135	0x3e032548	0.1280719
136	0x3de4dc1b	0.11174794
137	0x3ddf92ee	0.109166965
138	0x3da1d1cb	0.07901343
139	0x3d996fa9	0.074920006
140	0x3d8758ab	0.06608709
141	0x3e251d31	0.16124417
142	0x3e1b25da	0.15151158
143	0x3e130653	0.14357881
144	0x3dd38993	0.103289746
145	0x3e133980	0.14377403
146	0x3da19275	0.078892626
147	0x3d9bacb6	0.07601301
148	0x3ddfe294	0.10931888
149	0x3e156de9	0.14592709
150	0x3dff4b79	0.12465567
151	0x3d2ce94d	0.04221468
152	0xbc272c60	-0.010203451
153	0x3d20ac7c	0.039226994
154	0x3dc6d63d	0.097088315
155	0x3db68371	0.08911789
156	0x3dd25105	0.102693595
157	0x3d858595	0.065196194
158	0x3e0e18e9	0.1387669
159	0x3e150916	0.14554247
160	0x3d993de6	0.07482509
161	0x3dcda29b	0.1004078
162	0x3e156f69	0.14593281
163	0x3d5ffc70	0.054684103
164	0x3da45a37	0.080250196
165	0x3d7d56cc	0.061850354
166	0x3df63ef3	0.12023725
167	0x3df63416	0.12021653
168	0x3debc8b8	0.115128934
169	0x3d7e24fe	0.062046997
170	0x3d5880e1	0.052857284
171	0x3d7ad1be	0.061235182
172	0x3dbd6d4c	0.09249362
173	0x3dcc1277	0.099644594
174	0x3df75aab	0.120778404
175	0x3de4950b	0.1116124
176	0x3da9d206	0.08292012
177	0x3de10322	0.10986926
178	0x3e1038da	0.14084187
179	0x3df23dd3	0.11828198
180	0x3d7eecc3	0.062237512
181	0x3db78328	0.08960563
182	0x3db26103	0.0870991
183	0x3df1bd13	0.11803641
184	0x3d9c934b	0.076452814
185	0x3e109d14	0.1412242
186	0x3e08684e	0.13321039
187	0x3e97e01d	0.29663172
188	0x3d6b2038	0.057403773
189	0xbd75987a	-0.059959866
190	0xbb6825ee	-0.0035422998
191	0x3e0024d1	0.12514044
192	0x3e0271c3	0.12738709
193	0x3dbc7d29	0.0920356
194	0x3d4b7f7c	0.049682125
195	0x3d854308	0.06506926
196	0x3dbb19ba	0.09135766
197	0x3d933c43	0.071892284
198	0x3dfa8b75	0.122336306
199	0x3d78df24	0.06075968
200	0x3dc2f819	0.09519977
201	0x3e000e04	0.12505347
202	0x3dd1c4af	0.102425925
203	0x3d900ed2	0.07034077
204	0x3d41d896	0.047325693
205	0x3d7c6935	0.06162377
206	0x3e07128f	0.13190673
207	0x3dc99339	0.098425336
208	0x3cb41603	0.021983152
209	0xbc5dd6cd	-0.013539982
210	0x3d74d2df	0.059771415
211	0x3deeda64	0.116627485
212	0x3e188f9c	0.14898533
213	0x3da9fe08	0.08300406
214	0x3de019c2	0.10942413
215	0x3dfa5fbf	0.12225293
216	0x3d9580ec	0.072999805
217	0x3d9dcfdb	0.07705661
218	0x3db3278c	0.08747777
219	0x3dd4872a	0.10377343
220	0x3df263d6	0.118354484
221	0x3d9a5748	0.07536179
222	0x3e0e6af8	0.13907993
223	0x3daea474	0.08527461
224	0x3df46ecf	0.119351976
225	0x3e2329a3	0.15933852
226	0x3dc89984	0.09794906
227	0x3d4d40f7	0.050110783
228	0x3c3865e3	0.01125476
229	0x3dfe6938	0.12422413
230	0x3e07d0e9	0.13263287
231	0x3d932aed	0.07185922
232	0x3d8e4663	0.06947019
233	0x3dcedbdb	0.10100528
234	0x3ddbe9b4	0.10737935
235	0x3e0ab768	0.13546526
236	0x3e00cad1	0.12577368
237	0x3e003ba8	0.12522757
238	0x3dd7b86f	0.10533225
239	0x3dc92005	0.0982056
240	0x3dddece1	0.10836197
241	0x3e1146ac	0.14187115
242	0x3d2e89fa	0.042612053
243	0x3e12720c	0.14301318
244	0x3dafd30a	0.085851744
245	0x3dd8c633	0.105846785
246	0x3bb8c27d	0.005638419
247	0x3cb2401c	0.021759085
248	0x3e159f61	0.1461158
249	0x3d7c1073	0.061539125
250	0x3dcc3179	0.09970374
251	0x3d8b329f	0.067967646
252	0x3d47bad6	0.048762165
253	0x3dc78502	0.09742166
254	0x3d596d5c	0.05308281
255	0x3dfb83c6	0.12280993
