models/policyNet.pt (torch, 328652 bytes, 29 tensors)

conv1.weight f4 [32, 15, 3, 3]
0	0xbef0ce47	-0.47032377
1	0xbdcec050	-0.100952744
2	0xbeecc7ca	-0.46246177
3	0xbe3c6620	-0.18398333
4	0xbe9633f7	-0.2933652
5	0xbcddf348	-0.027093545
6	0xbf2fbd25	-0.68647987
7	0xbe82d52d	-0.25553265
8	0xbec5db87	-0.3864405
9	0x3d20af1f	0.03922951
10	0xbdc79ced	-0.09746728
11	0xbe3654e7	-0.17805825
12	0xbf51f0c2	-0.8200799
13	0x3e9d4297	0.30714867
14	0xbeba166d	-0.36345235
15	0xbcf8af9a	-0.03035717
16	0xbe207e40	-0.1567316
17	0xbe8f6054	-0.2800318
18	0xbe27bc44	-0.16380411
19	0xbefb518e	-0.4908566
20	0x3c832906	0.016010772
21	0x3f47b4a6	0.7801002
22	0x3f100877	0.56262916
23	0x3ed7fbb4	0.42184222
24	0x3de73623	0.11289623
25	0xbdb276d9	-0.08714075
26	0x3cfaf33f	0.030633567
27	0xbda383c2	-0.07984115
28	0xbd5dedf2	-0.054182
29	0xbcb27ed6	-0.021788996
30	0xbd096a4c	-0.03354864
31	0x3d984ac3	0.07436135
32	0xbd64804e	-0.055786423
33	0xbd2247b0	-0.039619148
34	0xbd764a3f	-0.0601294
35	0xbda514ef	-0.080606334
36	0xbcc91401	-0.024545671
37	0x3e766adb	0.240642
38	0x3dbf7533	0.09348526
39	0x3e705b07	0.23472224
40	0x3e97f76e	0.2968096
41	0xbe1e19ee	-0.15439579
42	0xbd6b7f28	-0.057494313
43	0xbc808053	-0.01568619
44	0xbab6461d	-0.0013906393
45	0x3d62a613	0.055334162
46	0xbd17736e	-0.036975317
47	0x3ddad3e0	0.10684943
48	0x3ead6575	0.33866468
49	0x3ec77189	0.38953808
50	0x3e2aab57	0.16666923
51	0x3e630d36	0.22173008
52	0x3e4bd90d	0.19907017
53	0x3df1a963	0.11799886
54	0xbce7b670	-0.028285235
55	0x3d102962	0.035195716
56	0x3d2a99c1	0.041650537
57	0xbd3f0d09	-0.04664329
58	0x3dc43456	0.09580295
59	0x3e96f191	0.29481176
60	0x3de190fe	0.11013983
61	0x3e31cea8	0.1736399
62	0xbd8814d9	-0.066446014
63	0xbe202e9c	-0.1564278
64	0x3db36205	0.0875893
65	0x3da4db8a	0.08049686
66	0xbc42abbe	-0.011881767
67	0xbdb316c6	-0.08744578
68	0x3e57f44c	0.21089286
69	0xbd8bc09e	-0.06823848
70	0xbd2eb420	-0.04265225
71	0xbc72cec4	-0.014819805
72	0xbdafb721	-0.08579851
73	0x3dc8be50	0.09801924
74	0xbdf3a19c	-0.11896059
75	0xbd740969	-0.059579287
76	0xbd86d326	-0.06583242
77	0xbe5e7d52	-0.21727493
78	0xbd488ebe	-0.048964255
79	0xbe06ea72	-0.13175371
80	0x3e4317a7	0.19051991
81	0xbb2144c7	-0.0024607645
82	0xbd80048f	-0.062508695
83	0x3e064c82	0.13115123
84	0xbd430dfe	-0.047620766
85	0xbe410611	-0.1884997
86	0x3d2187b1	0.039436046
87	0xbdacc648	-0.08436257
88	0x3c7bd81f	0.0153713515
89	0x3ca66d20	0.020315707
90	0xbdbf5b7b	-0.093436204
91	0x3c860208	0.01635839
92	0xbccb4a9f	-0.024815856
93	0x3c98a61f	0.0186339
94	0xbe020848	-0.12698472
95	0x3c7e527d	0.015522596
96	0xbdb8219c	-0.089907855
97	0xbc0df04e	-0.00866325
98	0xbcb5c3e6	-0.022188138
99	0xbdc57665	-0.096417226
100	0x3dbe720c	0.092990965
101	0x3d91570e	0.070966825
102	0xbd310203	-0.04321481
103	0xbdf15948	-0.11784607
104	0x3d790867	0.06079903
105	0xbda8b140	-0.08236933
106	0x3d1ae0f4	0.03781219
107	0xbdfa80fa	-0.122316316
108	0xbda2cba9	-0.07949001
109	0x3d41e3ad	0.04733627
110	0x3d1f653c	0.038914904
111	0xbd9e9f47	-0.077452235
112	0xbdad65e1	-0.084666975
113	0x3ebf19dd	0.3732442
114	0x3e003e12	0.12523678
115	0x3daafde4	0.08349207
116	0x3e49f0cf	0.19720767
117	0x3e438a15	0.19095643
118	0x3dbe5c2b	0.092949234
119	0x3dd767e2	0.10517861
120	0x3c2fbc86	0.0107261
121	0x3d8ff456	0.07029025
122	0x3e55ba22	0.20871785
123	0x3e0e6bec	0.13908356
124	0xbcb6930d	-0.022286916
125	0x3d8ad07a	0.06778045
126	0x3e0f9901	0.1402321
127	0x3da32bb0	0.07967317
128	0x3e14f948	0.14548218
129	0xbe8004bc	-0.25003612
130	0x3c99ddf5	0.018782595
131	0x3eaa7a55	0.33296457
132	0xbdcfceb6	-0.10146849
133	0xbea23780	-0.31682968
134	0x3e173646	0.14766797
135	0x3e050050	0.129884
136	0xbdab16b9	-0.083539434
137	0x3e7dc3cf	0.24781726
138	0xbd47065c	-0.04859005
139	0x3eb0e2cc	0.34548032
140	0x3e1acf4e	0.15118143
141	0x3e936ccf	0.28793952
142	0x3ebb23de	0.36550802
143	0x3e86100b	0.26184115
144	0xbe91e386	-0.284939
145	0xbe2e2bea	-0.1700894
146	0x3e52f099	0.20599593
147	0xbf86e654	-1.053904
148	0xbf24bd6e	-0.64351547
149	0xbef84605	-0.4849092
150	0xbf6bf10e	-0.92164695
151	0xbf728038	-0.94726896
152	0xbf06a95d	-0.5260218
153	0xbe2cb812	-0.16867092
154	0x3ee2921e	0.44252104
155	0xbeb60109	-0.35547665
156	0x3f3e94e4	0.7444594
157	0xbe69d0af	-0.22833513
158	0x3e526b56	0.20548758
159	0x3eb50791	0.35357335
160	0x3ed03cf9	0.40671518
161	0x3e8f2da8	0.2796452
162	0xbd9e2b98	-0.077231586
163	0xbd98315d	-0.0743129
164	0xbc5ca73f	-0.013467609
165	0x3a91e2ec	0.001113025
166	0xbd2024f9	-0.03909776
167	0x3d04cbfe	0.032421105
168	0xbd9ea5cf	-0.07746469
169	0xbbbe5432	-0.0058083767
170	0x3d9b0282	0.07568838
171	0x3e747372	0.23872164
172	0x3e2c6660	0.16835928
173	0x3db1cd36	0.08681719
174	0xbebf2a11	-0.37336782
175	0x3eaf107b	0.3419226
176	0x3e8cc8ca	0.2749694
177	0xbea1b481	-0.31583026
178	0x3f2969b6	0.6617693
179	0x3d28d687	0.041220214
180	0x3db71960	0.08940387
181	0x3d3147fb	0.043281537
182	0x3e9b7d97	0.30369255
183	0xbf0e93c7	-0.5569424
184	0x3e8de86e	0.27716392
185	0xbe1a4653	-0.15065889
186	0xbec7f876	-0.39056748
187	0x3e658a11	0.2241595
188	0x3c93b87a	0.018032301
189	0x3dbb3c9f	0.09142422
190	0xbd670feb	-0.056411665
191	0x3e204576	0.15651497
192	0xbe82bf19	-0.2553642
193	0x3dd763b1	0.105170615
194	0x3c8a7deb	0.016905745
195	0xbebf9aeb	-0.3742288
196	0xbcea1588	-0.02857472
197	0xbdb33c5a	-0.087517455
198	0xbe4ef489	-0.2021047
199	0x3e603661	0.21895744
200	0x3e52452b	0.20534198
201	0xbe2ad5c2	-0.16683105
202	0xbe894413	-0.2680975
203	0xbe823798	-0.2543304
204	0xbe8dab75	-0.27669874
205	0xbd3bd71c	-0.04585944
206	0xbd0450cf	-0.032303628
207	0xbdc39cd7	-0.09551399
208	0xbd05f80c	-0.03270726
209	0xbc8a7fd4	-0.016906656
210	0xbd3cfad0	-0.04613763
211	0xbe634b96	-0.22196802
212	0x3e7b9dae	0.24571869
213	0x3df02a5f	0.11726832
214	0x3d03d878	0.032188863
215	0xbd34d755	-0.04415067
216	0x3da69cae	0.08135353
217	0x3d61e53a	0.055150248
218	0xbb6b46a4	-0.003590026
219	0x3d847a41	0.064686306
220	0xbd80dfd3	-0.06292691
221	0xbc81738b	-0.015802165
222	0x3e0c7431	0.13716199
223	0xbc774074	-0.01509105
224	0x3be131b2	0.006872379
225	0xbd76b251	-0.06022865
226	0xbc218982	-0.009859445
227	0xbcfc033b	-0.03076326
228	0x3d98933c	0.07449958
229	0xbd17ab21	-0.037028436
230	0xbcc02671	-0.02345583
231	0x3e295257	0.16535316
232	0x3c02460a	0.007951269
233	0x3c8f4bf5	0.017492274
234	0x3c56227d	0.013069746
235	0xbd0f7f7d	-0.03503369
236	0xbda860d0	-0.082215905
237	0xbbc46c6a	-0.0059943693
238	0x3c866d6f	0.016409604
239	0x3da2e5a8	0.0795396
240	0x3cb0a493	0.02156285
241	0xbdbdfe9c	-0.092770785
242	0x3d02b7d5	0.031913597
243	0x3e638531	0.22218777
244	0x3e8188a6	0.25299567
245	0x3d3a5bbf	0.045497652
246	0xbdca074a	-0.098646715
247	0x3e31ba15	0.17356141
248	0x3e980325	0.296899
249	0xbd8e9bbc	-0.06963298
250	0x3e14961b	0.14510386
251	0x3e273cc8	0.1633178
252	0xbd39d488	-0.0453687
253	0x3dd33213	0.10312285
254	0xbdbc2e1a	-0.09188481
255	0x3ce07ed1	0.02740422

conv1.bias f4 [32]
0	0x3afb977c	0.0019194926
1	0x3d63e05f	0.0556339
2	0x3c9bf8e3	0.019039577
3	0xbc1cdf02	-0.009574654
4	0x3d170032	0.03686542
5	0x3da753ca	0.08170278
6	0x3dadde9b	0.08489724
7	0xbd945e8f	-0.07244598
8	0x3bab0bca	0.005219911
9	0xbd7d3f58	-0.061827987
10	0x3d4d664d	0.05014639
11	0x3d7d13dc	0.061786518
12	0xbd778b43	-0.060435545
13	0xbba2fed1	-0.004974224
14	0x3d73f107	0.059556033
15	0x3d6920fc	0.056916222
16	0xbd848702	-0.06471063
17	0x3d6cb29a	0.057787515
18	0xbc79a52d	-0.015237135
19	0xbd95e84e	-0.07319699
20	0x3c8c7243	0.017144328
21	0x3d243ab0	0.04009503
22	0x3d536b0d	0.051615763
23	0xbd6fb10b	-0.05851845
24	0xbd7f5460	-0.062336326
25	0xbd6cdc34	-0.05782719
26	0x3d47c81d	0.048774827
27	0xbd9a0d1c	-0.07522032
28	0xba3e337d	-0.0007255597
29	0xbccf3024	-0.02529151
30	0x3d19ea48	0.037576944
31	0x3c8a7626	0.01690204

conv2.weight f4 [64, 32, 3, 3]
0	0x3bb48c95	0.0055099227
1	0xbc21452c	-0.009843152
2	0xbe037371	-0.12837006
3	0x3d8407b1	0.064467795
4	0x3c0ace66	0.008472061
5	0xbe50012e	-0.2031295
6	0xbe2bd87c	-0.16781801
7	0xbe01c06a	-0.12671056
8	0xbe58a759	-0.21157588
9	0xbc99e621	-0.018786492
10	0xbdcab5d0	-0.09897959
11	0xbe4410d5	-0.19147046
12	0x3deb9243	0.115025066
13	0xbdb275f2	-0.087139025
14	0xbe5190de	-0.20465419
15	0xbde33ca4	-0.11095551
16	0xbe66a0e0	-0.22522306
17	0xbd8d8c90	-0.06911576
18	0xbe741c21	-0.23838855
19	0x3e2cc5f2	0.16872385
20	0x3cf27c9c	0.029600434
21	0x3e360398	0.17774808
22	0x3c471a79	0.012152308
23	0xbd530c1a	-0.051525213
24	0x3cae5531	0.021280857
25	0x3ea2db62	0.31808
26	0xbe814af7	-0.25252506
27	0xbd95987b	-0.07304474
28	0x3ca72f4a	0.020408291
29	0x3e0448c5	0.12918384
30	0x3dc1b26a	0.09457858
31	0xbd37e59e	-0.044896714
32	0xbdc4ecbe	-0.096154675
33	0xbdf070d5	-0.11740271
34	0xbd9c4367	-0.076300435
35	0xbd8e5963	-0.06950643
36	0xbe15c135	-0.14624484
37	0xbe882cb5	-0.2659661
38	0xbd80fdd4	-0.06298414
39	0xbe201d00	-0.15636063
40	0xbe344a3a	-0.1760644
41	0xbe5f9dd7	-0.21837555
42	0xbd6fe310	-0.058566153
43	0xbdcac38d	-0.099005796
44	0x3dfc742b	0.12326845
45	0x3cd27364	0.025689788
46	0x3e0cfd2a	0.1376845
47	0x3d5736e5	0.052542586
48	0xbea749b1	-0.3267341
49	0x3d820a97	0.06349676
50	0x3e2a5df6	0.16637406
51	0x3d50f669	0.051016245
52	0x3e1ee155	0.15515645
53	0x3d5f3639	0.05449507
54	0x3dab73c8	0.08371693
55	0xbe87eec5	-0.26549354
56	0x3be214c5	0.0068994486
57	0x3d81ad12	0.06331839
58	0x3e2c1655	0.16805394
59	0xbe83d264	-0.25746453
60	0x3e7b1b8e	0.2452223
61	0x3dc73392	0.09726633
62	0xbd109216	-0.03529557
63	0x3da1674e	0.07881032
64	0xbebdb1a0	-0.3704958
65	0xbd6f37f4	-0.05840297
66	0xbdb3d2d5	-0.087804474
67	0xbaee424a	-0.0018177715
68	0xbd2a4085	-0.041565437
69	0xbe810b65	-0.25204006
70	0xbe7437de	-0.23849437
71	0xbecf2a94	-0.40462172
72	0x3db909ca	0.0903507
73	0xbd84fda7	-0.06493693
74	0xbec8d3c3	-0.3922406
75	0xbe4eb890	-0.20187593
76	0xbe86a49b	-0.2629746
77	0xbdc0cbd8	-0.0941388
78	0x3e6648ec	0.22488755
79	0xbe0db92d	-0.1384017
80	0xbe4df770	-0.20113921
81	0xbe5de77e	-0.21670339
82	0x3b44c636	0.003002537
83	0x3e277fd0	0.1635735
84	0xbda827df	-0.0821073
85	0x3e165512	0.14680889
86	0xbc81cffd	-0.015846247
87	0xbdfe853b	-0.124277554
88	0x3d871dc9	0.06597478
89	0xbdf7f814	-0.12107864
90	0xbda03109	-0.07821853
91	0xbbe1c63c	-0.0068900865
92	0x3d065d88	0.032804042
93	0xbd6cfe5f	-0.057859775
94	0x3e2d7db2	0.1694248
95	0x3d79d8f5	0.060997922
96	0xbd95e783	-0.07319548
97	0x3c6fbde9	0.01463268
98	0x3d94743d	0.07248733
99	0x3d0d1633	0.034445
100	0xbbd6a493	-0.0065503805
101	0xbe07fb09	-0.13279356
102	0xbe03eefb	-0.12884133
103	0x3deaa1e7	0.11456662
104	0xbcb1a1d3	-0.02168361
105	0xbd8f245e	-0.06989358
106	0x3d1c8f70	0.03822273
107	0xbd48e0e7	-0.04904261
108	0xbcd8a4d2	-0.02644578
109	0xbdca5850	-0.098801255
110	0x3d5cc581	0.053899292
111	0xbd4398a4	-0.04775299
112	0x3d57bbdc	0.05266939
113	0x3de3d114	0.11123863
114	0x3d6b10ff	0.057389256
115	0x3d8a0628	0.067394555
116	0x3e091b98	0.13389432
117	0x3e59721c	0.21234936
118	0x3e3660eb	0.17810409
119	0x3db59f70	0.08868301
120	0x3e2269d6	0.15860686
121	0xbde76ede	-0.11300443
122	0x3d997f50	0.07494986
123	0x3d9b33a2	0.075782076
124	0x3e164d6a	0.14677969
125	0x3c3b5a66	0.011435127
126	0x3bf559ed	0.0074875266
127	0x3da0ac38	0.07845348
128	0x3e34614b	0.1761524
129	0x3e800c35	0.25009313
130	0xbe32544d	-0.1741497
131	0xbe56d829	-0.20980896
132	0x3e012951	0.12613417
133	0x3e386a08	0.18009198
134	0xbd4ba54c	-0.049718186
135	0x3e632b96	0.22184595
136	0xbcf19a67	-0.02949257
137	0xbd355c72	-0.044277616
138	0xbe234a90	-0.15946412
139	0xbe009178	-0.12555492
140	0xbc01210b	-0.007881413
141	0xbe047baa	-0.12937799
142	0xbe4f4821	-0.20242359
143	0xbc9f1253	-0.019417917
144	0xbd0d093c	-0.034432635
145	0xbce2a998	-0.02766876
146	0xbe9ddf09	-0.30834225
147	0xbe2ca9e0	-0.16861677
148	0x3d59bd65	0.053159136
149	0xbea24381	-0.31692126
150	0xbd594f2e	-0.053054027
151	0xbe9f536b	-0.3111833
152	0xbe2fed77	-0.1718043
153	0x3e1e3633	0.15450363
154	0xbd573c61	-0.052547816
155	0x3da8d800	0.08244324
156	0x3e6546c0	0.2239027
157	0xbe0f1c04	-0.13975531
158	0xbe513947	-0.20432006
159	0xbd6ed2d5	-0.058306534
160	0x3cf8a108	0.030350223
161	0xbcc96e1c	-0.024588637
162	0x3d25f818	0.040519804
163	0xbd3d1494	-0.046162203
164	0x3e7234d9	0.23652972
165	0x3e37470a	0.17898193
166	0xbc21686c	-0.009851556
167	0x3d4e89f7	0.050424542
168	0x3d6353af	0.05549973
169	0x3e0cf494	0.13765174
170	0x3c1d16de	0.0095879715
171	0x3e8bd055	0.27307382
172	0xbd81307d	-0.063080765
173	0xbdae4ec7	-0.08511119
174	0xbdaa03ea	-0.08301528
175	0xbdea22e0	-0.11432433
176	0xbe1db0b5	-0.1539944
177	0x3e7fb8fe	0.24972913
178	0xbd3063b4	-0.043063834
179	0xbe97ec05	-0.29672256
180	0xbe92308c	-0.28552663
181	0xbf1d7c75	-0.6151803
182	0xbe25b9dc	-0.16184181
183	0xbeaca8c1	-0.337225
184	0xbef72a59	-0.48274496
185	0xbe9060eb	-0.28198943
186	0xbe9eaf68	-0.309932
187	0xbe4a51ec	-0.19757813
188	0xbc489624	-0.012242828
189	0xbd333f5c	-0.043761596
190	0xbd78ba56	-0.06072458
191	0x3e69b1f0	0.22821784
192	0x3d9e7564	0.07737234
193	0x3e15278c	0.14565867
194	0x3e879bcf	0.2648606
195	0x3c152aa7	0.009104407
196	0xbc6c3ed7	-0.014419279
197	0x3c54f59f	0.012998014
198	0xbe3e90ad	-0.18609877
199	0xbe48b53f	-0.1960039
200	0xbc79d558	-0.015248619
201	0xbe5c069c	-0.21486896
202	0x3e54b1e6	0.20770988
203	0xbd46307c	-0.048386082
204	0x3dc2a906	0.09504895
205	0x3d54e090	0.051971972
206	0x3dbfdace	0.093679056
207	0xbe50e356	-0.20399222
208	0x3df71030	0.120636344
209	0x3dce6544	0.10077909
210	0x3d0a98c3	0.03383709
211	0xbe96b776	-0.29436845
212	0xbce1a487	-0.027544273
213	0x3e15044c	0.1455242
214	0x3d77b3ef	0.060474332
215	0x3e4c598d	0.19956036
216	0xbc953104	-0.018211849
217	0x3e36007b	0.17773621
218	0xbc5eb123	-0.013592037
219	0xbd2cb7e1	-0.042167548
220	0xbe339934	-0.17538911
221	0xbe249061	-0.16070701
222	0xba04b129	-0.00050617993
223	0x3dcef10b	0.10104569
224	0xbd224d40	-0.039624453
225	0xbdc1e22c	-0.09466967
226	0x3dcef29f	0.1010487
227	0x3d0ff932	0.03514976
228	0x3e85be4e	0.26121753
229	0x3e348ec7	0.1763259
230	0xbc5d79a5	-0.013517772
231	0x3dbe43ab	0.092902504
232	0x3e5d7a07	0.21628581
233	0x3cca568e	0.024699476
234	0xbcf421f1	-0.02980134
235	0x3db238ba	0.08702226
236	0xbdb45c3b	-0.08806654
237	0x3db209b0	0.08693254
238	0x3dd9b8e8	0.10630971
239	0xbc10d1bd	-0.008839068
240	0x3bdd391a	0.006751192
241	0x3cbb19c6	0.022839438
242	0x3dde8a6e	0.10866247
243	0x3d867d87	0.06566911
244	0xbeab28fd	-0.3342971
245	0xbe74028c	-0.23829097
246	0x3d345323	0.044024598
247	0x3d4e7c52	0.05041153
248	0xbe2b6cac	-0.16740674
249	0x3e82c13b	0.25538048
250	0x3e4ed57a	0.20198622
251	0xbc9c4425	-0.019075463
252	0xbd5e64f1	-0.054295484
253	0x3ea83bc3	0.32858095
254	0xbe35fc29	-0.17771973
255	0x3e3d79ae	0.18503448

conv2.bias f4 [64]
0	0x3d429166	0.047501944
1	0xbce5a366	-0.028032016
2	0x3a8aedbd	0.0010599416
3	0x3cc93143	0.024559623
4	0xbcdb67c6	-0.026782881
5	0x3b76724b	0.0037604745
6	0xbc5c2f32	-0.013438987
7	0x3d1d036d	0.038333345
8	0x3c5fcecd	0.013660145
9	0xbd316ed1	-0.043318573
10	0x3921cc13	0.0001543018
11	0x3d3bf42a	0.04588715
12	0x3caea6d2	0.02131978
13	0x3d0c192e	0.0342037
14	0x3ca43206	0.020043384
15	0x3cf9ed47	0.03050865
16	0x3d3fde4c	0.04684286
17	0xbc22613f	-0.009910881
18	0x3c839807	0.016063703
19	0x3c043b6f	0.008070811
20	0x3d5689f7	0.052377667
21	0xbd069443	-0.032856237
22	0xbd39452a	-0.045231976
23	0x3c971322	0.01844174
24	0x3d1a9dc3	0.03774811
25	0x3cd03f67	0.025420858
26	0x3ccb9578	0.024851546
27	0xbd2a5a77	-0.04159018
28	0x3cd73f45	0.026275286
29	0xbb910dda	-0.0044267
30	0xbd360cdd	-0.04444586
31	0xbd0cb2fd	-0.034350384
32	0x3ce3b8f3	0.027798152
33	0xbd1cc88a	-0.038277186
34	0xbc758832	-0.014986085
35	0x3d3247d5	0.043525536
36	0x3c988d09	0.018621938
37	0x3d05bea8	0.032652527
38	0xbc8c87a6	-0.017154526
39	0xbd6f0ccb	-0.05836181
40	0x3b922719	0.004460227
41	0x3d1e70f5	0.038681943
42	0xbd1724e8	-0.03690043
43	0xbd450511	-0.048100535
44	0xbcbd2108	-0.02308704
45	0xbbc78690	-0.006089039
46	0x3d50ceff	0.050978657
47	0x3c6aea41	0.014338077
48	0x3d1806c4	0.037115827
49	0xbb3478d0	-0.002753783
50	0xbcfd8e0f	-0.030951528
51	0x3d6fe1d8	0.05856499
52	0x3c48338b	0.01221932
53	0xbd433a05	-0.047662754
54	0x3d0a2fc4	0.03373696
55	0x3ca1e1d9	0.019761013
56	0xbd00a99c	-0.031411752
57	0x3b99b507	0.0046907696
58	0xbd6d3eb8	-0.05792114
59	0xbd4ce602	-0.05002404
60	0xbbfea03b	-0.007770566
61	0x3d70ff2c	0.0588371
62	0xbc91a256	-0.017777603
63	0x3c711112	0.014713543

conv3.weight f4 [64, 64, 3, 3]
0	0x3dd914eb	0.10599693
1	0x3e178682	0.14797404
2	0xbd8148df	-0.06312727
3	0x3e8d96fc	0.27654254
4	0xbdc11a79	-0.094288774
5	0xbd846c75	-0.06465999
6	0x3e206d7a	0.15666762
7	0xbd629627	-0.055318978
8	0xbd9169db	-0.071002685
9	0xbda572cd	-0.08078537
10	0xbed7f339	-0.42177752
11	0xbcfe80f8	-0.031067356
12	0xbc90e1f6	-0.017685872
13	0x3d08ed7d	0.03342961
14	0xbd9917f5	-0.074752726
15	0xbd5b6e4d	-0.053571988
16	0x3b6567b5	0.003500444
17	0x3e789b9c	0.2427811
18	0xbe16ab6c	-0.1471383
19	0xbd1296f9	-0.03578851
20	0x3c77af22	0.0151174385
21	0xbe05be14	-0.1306079
22	0x3d316c23	0.043316018
23	0xbe3769dc	-0.17911476
24	0x3c225a59	0.009909236
25	0xbe373635	-0.17891772
26	0xbe1f3188	-0.15546238
27	0xbe0afc3e	-0.13572785
28	0x3e1e73cf	0.15473865
29	0x3c93dd55	0.018049875
30	0x3e0c0c17	0.13676487
31	0xbc9efc39	-0.019407379
32	0xbd1e8f0c	-0.03871064
33	0x3ddcc178	0.10779089
34	0xbd9c60e6	-0.076356694
35	0x3db77f7f	0.08959865
36	0x3d803824	0.06260708
37	0xbd646067	-0.055756
38	0x3c6a6158	0.014305435
39	0x3e1b8050	0.15185666
40	0xbe30ced6	-0.17266402
41	0x3e03ad75	0.12859137
42	0x3e0fbaee	0.14036152
43	0xbb1dc1e4	-0.0024071867
44	0xbe15e001	-0.14636232
45	0x3cb5bb67	0.022184087
46	0xbe385852	-0.18002442
47	0x3e31a58d	0.17348309
48	0xbcedca57	-0.029027147
49	0xbeafe05d	-0.34350863
50	0xbda20082	-0.07910253
51	0x3e28fecf	0.16503452
52	0xbd0d21bb	-0.034455996
53	0xbda5debd	-0.080991246
54	0xbd3c34a3	-0.045948636
55	0x3e4a0837	0.19729696
56	0x3e02478f	0.1272261
57	0xbd049f6f	-0.03237861
58	0x3e5fe4c5	0.21864612
59	0x3e5dc0c9	0.21655573
60	0x3ad87ef3	0.0016517326
61	0xbe757ef8	-0.23974216
62	0x3d9e4616	0.077282116
63	0xbdc850b7	-0.0978102
64	0x3db0bafa	0.08629413
65	0x3e0e3239	0.13886346
66	0xbdb88157	-0.090090446
67	0xbd1e1f16	-0.038603865
68	0xbe4913f2	-0.19636515
69	0xbd78c3c7	-0.060733583
70	0x3ea5ba20	0.32368565
71	0x3ddaf692	0.10691561
72	0x3c6c0417	0.014405272
73	0x3dcfe133	0.10150375
74	0xbded58f3	-0.11589231
75	0x3d27d8a9	0.040978108
76	0x3dd5cf10	0.10439885
77	0xbd8e17da	-0.06938143
78	0x3e54eca2	0.20793393
79	0x3da6c02a	0.08142121
80	0x3ba6c8a9	0.0050898385
81	0xbd26c3f9	-0.040714238
82	0xbd631a67	-0.0554451
83	0xbca85542	-0.020548467
84	0x3d9274f0	0.0715121
85	0xbd9c417d	-0.076296784
86	0xbde65386	-0.112463996
87	0xbe29ed3f	-0.16594408
88	0xbd953f17	-0.07287424
89	0xbe2bb5a5	-0.1676851
90	0xbda3c090	-0.07995713
91	0xbe7d1dae	-0.24718353
92	0xbdb57eab	-0.088620506
93	0xbe8cbcc9	-0.27487782
94	0xbd63e765	-0.055640597
95	0xbd112cf1	-0.03544325
96	0xbeb15830	-0.34637594
97	0x3dad75a7	0.08469706
98	0xbe7f5020	-0.24932909
99	0x3de28cc4	0.11062005
100	0x3e4fa2c0	0.20276928
101	0xbe827b81	-0.2548485
102	0x3dac9a3e	0.08427857
103	0x3de4e085	0.11175636
104	0xbe370635	-0.17873462
105	0x3d66aaa3	0.056315076
106	0x3e0dffee	0.1386716
107	0xbe52cc94	-0.20585853
108	0xbda0f023	-0.078583024
109	0xbe47d31e	-0.19514129
110	0xbd962217	-0.07330721
111	0x3dcd142e	0.100136146
112	0xbd6212a8	-0.055193573
113	0x3d21da1e	0.039514653
114	0x3d919b04	0.07109645
115	0x3d5f3ffd	0.054504383
116	0xbda7628b	-0.081730925
117	0xbe1f67ec	-0.15566987
118	0xbe13bd3e	-0.14427659
119	0xbce4028c	-0.027833246
120	0xbdd8d805	-0.105880775
121	0xbe301635	-0.17195971
122	0xbe8c1d24	-0.27365983
123	0x3e50edd9	0.20403232
124	0xbe14981e	-0.14511153
125	0xbe8dfdec	-0.2773279
126	0xbc9d0f4b	-0.019172331
127	0xbdcfbd3c	-0.101435155
128	0xbdce6b5b	-0.1007907
129	0xbe341e1d	-0.17589612
130	0xbe61d6a5	-0.22054537
131	0xbdc3a2fb	-0.095525704
132	0x3cf02493	0.029314315
133	0x3dd2786b	0.10276874
134	0x3a1d941f	0.00060111465
135	0xbb4bdf24	-0.0031108344
136	0xbe00cb25	-0.12577493
137	0x3e92ecb8	0.28696227
138	0xbeb5f62e	-0.35539383
139	0xbdc558fd	-0.09636114
140	0xbe3fd4a5	-0.18733461
141	0xbd4f0b51	-0.0505479
142	0x3d7be250	0.061495125
143	0xbd723865	-0.059135813
144	0xbd876247	-0.06610542
145	0x3db8f31e	0.09030746
146	0x3cbe4b0a	0.02322914
147	0xbe3566b2	-0.17714956
148	0x3d576e53	0.052595448
149	0x3c1b4c65	0.009478663
150	0xbce19e5c	-0.027541332
151	0x3d9cdde0	0.07659507
152	0x3bd31647	0.0064418647
153	0x3dd15ce1	0.10222793
154	0xbd41700a	-0.04722599
155	0x3c74cd9a	0.014941597
156	0xbcf0cf23	-0.029395645
157	0x3d0874df	0.033314582
158	0xbdfabfa4	-0.12243584
159	0xbe9a454b	-0.3013099
160	0x3e0b39f5	0.13596328
161	0x3e6bb799	0.23019256
162	0xbc466cb4	-0.012110878
163	0x3e0634f0	0.13106132
164	0xbd89276b	-0.066969715
165	0x3c059775	0.008153786
166	0x3db63728	0.08897239
167	0xbdcbd624	-0.099529535
168	0x3e60b0fc	0.21942514
169	0xbc326028	-0.010887183
170	0x3e2b8cb8	0.16752899
171	0xbdb14c2c	-0.08657107
172	0xbb6a42f3	-0.0035745471
173	0x3cde4972	0.02713463
174	0x3d35f522	0.04442323
175	0x3dc79a43	0.0974622
176	0x3c31f3a2	0.010861309
177	0xbd5ab508	-0.0533953
178	0xbcc7812a	-0.024353582
179	0x3e02459b	0.12721865
180	0xbe4832e7	-0.19550668
181	0x3d811847	0.06303459
182	0xbddc1d34	-0.107477576
183	0xbcd1b17a	-0.025597323
184	0x3e936114	0.28785002
185	0x3d21fa01	0.039545063
186	0x3e8b5626	0.27214164
187	0x3e2a42e3	0.16627078
188	0xbda8e35d	-0.08246491
189	0x3dc0501e	0.09390281
190	0x3b0a3ea9	0.0021094477
191	0x3de205aa	0.110362366
192	0x3e6ca48a	0.23109642
193	0x3dae2e8c	0.08504972
194	0x3dd4a8fb	0.10383793
195	0x3dbbae4d	0.091641046
196	0xbe4f02dd	-0.20215936
197	0x3d174bd4	0.03693755
198	0xbd31ec7f	-0.04343843
199	0xbdd6f431	-0.104957946
200	0xbcab3cdf	-0.020903049
201	0xbd0a7f7e	-0.033812992
202	0xbd9235d7	-0.071391754
203	0x3c242236	0.010017922
204	0x3cbb2583	0.022845035
205	0xbd68dc6c	-0.056850836
206	0x3e1c23d7	0.15248047
207	0xbd87a54d	-0.066233255
208	0x3e2fff8b	0.17187326
209	0xbdb8eb61	-0.0902927
210	0xbeaba1b6	-0.33521813
211	0xbc05f894	-0.008176941
212	0xbe242b2c	-0.16032094
213	0xbdc0600d	-0.0939332
214	0x3db395a6	0.087687775
215	0x3deb1c37	0.11479991
216	0x3defa4d2	0.11701359
217	0xbe0ffbb6	-0.14060864
218	0x3bef8f9a	0.00731082
219	0xbe7b90f0	-0.24567008
220	0x3d865101	0.06558419
221	0xbe05ec63	-0.13078456
222	0xbd91a0bc	-0.07110736
223	0xbc95f85c	-0.018306904
224	0xbe085a20	-0.1331563
225	0x3df6178b	0.12016209
226	0xbdce42d7	-0.100713424
227	0x3da4c1b4	0.080447584
228	0x3ddc3ff8	0.107543886
229	0x3d3dc2d1	0.04632837
230	0x3d707f24	0.058715
231	0xbe00773d	-0.12545486
232	0xbd07ebbe	-0.033183806
233	0xbe49a48a	-0.19691673
234	0xbddb859a	-0.10718842
235	0xbe62ad6e	-0.2213647
236	0xbdd2d626	-0.10294752
237	0xbe3208fe	-0.17386243
238	0xbd45b9f5	-0.048273046
239	0x3e12d30e	0.14338323
240	0xbe1be48b	-0.15223901
241	0xbdf18a24	-0.11793926
242	0xbd6d8f7e	-0.057998173
243	0xbd940d32	-0.07229079
244	0x3e1bd3fd	0.15217586
245	0x3cf017cc	0.029308222
246	0x3b218d3f	0.002465084
247	0x3c6b1b4b	0.014349769
248	0xbe14df86	-0.14538392
249	0x3e0d00cf	0.1376984
250	0xbe79e20c	-0.24402636
251	0x3e349b1d	0.17637296
252	0xbd0a5f1e	-0.033782117
253	0xbd85b583	-0.06528761
254	0x3d957128	0.072969735
255	0x3e8909e3	0.26765355

conv3.bias f4 [64]
0	0x3c132700	0.008981466
1	0x3c570006	0.013122564
2	0xbc10e540	-0.00884372
3	0xbbba104b	-0.005678212
4	0x3c2958a0	0.010336071
5	0x3caa7ba3	0.020810908
6	0x3accfc54	0.0015639164
7	0xbbac53b6	-0.0052590026
8	0xbd09db4a	-0.033656396
9	0x3b09b057	0.0021009648
10	0x3c4e275b	0.012582625
11	0xbab2a87f	-0.0013630538
12	0x3d032c22	0.03202451
13	0xbccdcb2b	-0.025121292
14	0xbcbc1fbb	-0.022964349
15	0x3cafbbae	0.021451797
16	0xbc0e4e7b	-0.008685703
17	0x3d04fadf	0.03246581
18	0x3d1eaf7a	0.038741566
19	0x3c488696	0.012239119
20	0x3d13ffb3	0.036132526
21	0xbb6cd6ec	-0.0036138846
22	0x3cc548f0	0.02408263
23	0xbd0b1b30	-0.033961475
24	0x39aa3136	0.00032461592
25	0xbc5d463b	-0.013505514
26	0x3d110c6b	0.035412233
27	0xbc813c7e	-0.015775915
28	0x3cf95766	0.030437183
29	0x3c052b86	0.008128053
30	0x3c51abf0	0.012797341
31	0x3c09139b	0.008366491
32	0xbce329d3	-0.027729904
33	0x3cc62fc3	0.024192696
34	0xbc04d290	-0.008106843
35	0xbbd74bee	-0.006570331
36	0xbbc107c9	-0.0058908206
37	0xbc98fae0	-0.018674314
38	0x3cc88bc3	0.024480706
39	0xbcd98fae	-0.02655777
40	0xbcc14393	-0.023591792
41	0xbc667c30	-0.014067695
42	0x3ced57b8	0.028972492
43	0xbd0adb18	-0.03390035
44	0xbc9d3186	-0.019188654
45	0x3bc490cd	0.005998707
46	0xbb435c9e	-0.0029809843
47	0x3b901444	0.004396947
48	0x3b94f590	0.004545875
49	0x3c8c4950	0.017124802
50	0xbc65d2eb	-0.014027338
51	0x3cfa65c3	0.030566102
52	0xbcc05f33	-0.023482895
53	0xbccb35fe	-0.024806019
54	0x3b35d1c2	0.0027743434
55	0x3cf426f0	0.029803723
56	0xbcb94396	-0.022615235
57	0x3cb59c06	0.022169124
58	0x3d144c66	0.03620567
59	0xbc88dc6e	-0.016706672
60	0xbce9d8db	-0.028545788
61	0x3bff8383	0.00779766
62	0x3c70cbb6	0.014697006
63	0xbd1c881f	-0.038215753

conv4.weight f4 [32, 64, 3, 3]
0	0xbceb1ecc	-0.028701209
1	0xbd802b56	-0.06258266
2	0xbeab4b17	-0.33455727
3	0xbcedc018	-0.029022262
4	0x3b83f862	0.0040274123
5	0xbd742360	-0.05960405
6	0xbdf0cf81	-0.11758328
7	0x3e0fb514	0.1403392
8	0xbdffed5e	-0.12496446
9	0x3e4e9979	0.20175733
10	0xbe080c6c	-0.13285989
11	0xbe9d2cb9	-0.30698183
12	0xbe498d8d	-0.19682904
13	0xbdc6fbeb	-0.09716018
14	0xbdeacc64	-0.11464766
15	0x3d1e61cc	0.038667485
16	0x3e24d851	0.16098143
17	0xbcdb5378	-0.0267732
18	0xbd1845bd	-0.037175883
19	0xbdb3ebfb	-0.08785244
20	0x3d2b324e	0.04179602
21	0xbe330825	-0.17483576
22	0x3e72fb9a	0.23728791
23	0x3e04a90b	0.1295511
24	0xbe44a4a3	-0.19203429
25	0xbd0b5555	-0.034016926
26	0x3e324824	0.17410332
27	0xbe1f5995	-0.15561517
28	0x3ea3d346	0.31997126
29	0x3d9d9467	0.07694321
30	0xbe3dbeaa	-0.18529764
31	0xbd72fc05	-0.059322376
32	0x3e22eb50	0.15910077
33	0xbe733124	-0.23749214
34	0xbdd4d1de	-0.103915915
35	0xbd384863	-0.04499091
36	0xbcb890cc	-0.022529982
37	0x3e42a930	0.19009852
38	0xbe56926e	-0.20954296
39	0x3e2293dd	0.15876718
40	0xbc6686b3	-0.014070201
41	0x3e6d33cb	0.23164289
42	0x3dfad6db	0.12248012
43	0xbd174b1e	-0.03693687
44	0x3d65a380	0.05606413
45	0x3c855a47	0.0162784
46	0xbee36cf7	-0.4441907
47	0xbe73dfa1	-0.23815776
48	0x3e37c052	0.17944458
49	0x3ceccc8e	0.028906133
50	0x3dd699b5	0.10478536
51	0xbe0291bf	-0.1275091
52	0x3e573158	0.21014917
53	0xbe71ff47	-0.23632537
54	0xbd2e06ac	-0.04248683
55	0x3df5abfe	0.119956955
56	0x3e0125dc	0.12612098
57	0x3e53ec91	0.20695712
58	0x3e2b738e	0.167433
59	0x3e9b1de4	0.30296242
60	0x3cd708e7	0.026249362
61	0x3e3b6b7f	0.18302725
62	0x3de0d738	0.1097855
63	0xbcded568	-0.02720137
64	0xbe29f150	-0.1659596
65	0x3c9a9afe	0.018872734
66	0x3d0739b3	0.03301401
67	0xbe822608	-0.2541964
68	0x3dfc2a01	0.12312699
69	0x3e588ae0	0.21146727
70	0x3d8b73c3	0.06809189
71	0x3c608097	0.013702533
72	0x3e78ddd6	0.24303374
73	0xbed295dd	-0.41129962
74	0x3dc54414	0.096321255
75	0xbd8f3136	-0.06991808
76	0xbcd65072	-0.026161406
77	0x3cd36b64	0.025808044
78	0xbe826449	-0.25467137
79	0xbdb86b01	-0.090047844
80	0xbe4ce799	-0.20010222
81	0x3e9329a7	0.28742716
82	0xbe06e521	-0.13173343
83	0x3cfd0ffe	0.030891415
84	0xbccd7033	-0.025077915
85	0xbe5df9ba	-0.21677294
86	0xbe234ee2	-0.1594806
87	0xbdc67e42	-0.096920505
88	0xbe46ae30	-0.19402385
89	0xbd379302	-0.044817932
90	0xbac6b12d	-0.0015159004
91	0xbe63e4b0	-0.22255206
92	0x3dee17e2	0.11625649
93	0x3e45b6dc	0.19308037
94	0xbe908334	-0.282251
95	0x3d8a2d88	0.06746966
96	0x3cc63658	0.024195835
97	0x3e117d9b	0.14208071
98	0x3cfa38c7	0.030544652
99	0x3caaf300	0.020867825
100	0x3e8046de	0.25054067
101	0xbe003730	-0.12521052
102	0x3d8bf979	0.068346925
103	0x3dc2aa6e	0.09505163
104	0x3dc85ce9	0.09783346
105	0xbeb60570	-0.35551023
106	0x3dee481e	0.11634849
107	0xbd7fbe53	-0.062437367
108	0xbdcdeb1f	-0.100546114
109	0x3df6beec	0.12048134
110	0xbaa4c9b8	-0.0012572324
111	0xbe3f01dc	-0.18653053
112	0xbc20fff7	-0.009826652
113	0x3d35e90b	0.0444117
114	0x3d95c8dc	0.073137015
115	0x3d4595bf	0.048238512
116	0xbe06a6e6	-0.13149604
117	0x3dbe4821	0.09291101
118	0xbd707ac7	-0.05871084
119	0x3e9723fc	0.2951964
120	0x3df5881e	0.11988853
121	0x3d3f7970	0.04674667
122	0x3e21e8bd	0.15811439
123	0x3d37d9f0	0.044885576
124	0xbbc9b777	-0.006155904
125	0x3e126242	0.14295295
126	0xbd0a7a54	-0.033808067
127	0x3e90cd98	0.28281856
128	0xbe18dc36	-0.14927754
129	0x3da1b52d	0.07895885
130	0x3d0fba53	0.035089802
131	0xbaaef046	-0.0013346754
132	0xbd233d61	-0.039853457
133	0x3e62dc32	0.2215431
134	0x3c909c29	0.017652588
135	0xbe574a3e	-0.21024415
136	0x3d15a7ca	0.03653697
137	0xbe201ebb	-0.15636723
138	0xbcb20a7c	-0.021733515
139	0x3dd210ad	0.10257087
140	0xbd8dcfe3	-0.06924417
141	0xbdc8de42	-0.09808017
142	0x3d80d803	0.06291201
143	0x3ba12d45	0.0049187266
144	0x3c967749	0.018367426
145	0xbe5c3c6d	-0.21507426
146	0x3c45f525	0.012082373
147	0x3ded19a5	0.11577157
148	0x3e66af76	0.2252787
149	0x3dedf889	0.1161967
150	0x3c565eae	0.013084097
151	0xbd616729	-0.05503002
152	0xbdd949c8	-0.10609776
153	0x3dd3a7df	0.10334753
154	0xbea4069b	-0.3203629
155	0x3dbc93d8	0.092078865
156	0xbdeee6c4	-0.11665109
157	0x3d897c68	0.06713182
158	0xbe0ec2cd	-0.13941498
159	0xbe101162	-0.14069131
160	0xbe08bf58	-0.13354242
161	0xbdc99d6c	-0.09844479
162	0xbe3dbe89	-0.18529715
163	0x3dcce910	0.10005391
164	0xbda3d169	-0.07998926
165	0x3e3b9af8	0.18320835
166	0xbcd1c563	-0.025606817
167	0xbc0cbde9	-0.0085902
168	0xbd995fdd	-0.074889876
169	0x3dea6be7	0.11446362
170	0xbb766a0c	-0.003759983
171	0x3cc873f9	0.024469363
172	0xbc17fb40	-0.009276211
173	0xbdff6c36	-0.124718115
174	0x3d1bca0b	0.03803448
175	0x3e42bd65	0.19017561
176	0x3e7c0176	0.24609932
177	0xbeb4ed06	-0.35337085
178	0xbe2c9790	-0.16854692
179	0x3c4287d1	0.0118732015
180	0xbe3c957d	-0.184164
181	0xbd5c0eca	-0.05372504
182	0xbd3e3ed5	-0.04644664
183	0x3dc7e29c	0.09760019
184	0xbc6e3368	-0.014538623
185	0x3d5f68e6	0.0545434
186	0x3dfd93c1	0.123816974
187	0x3d201e71	0.03909153
188	0x3e3b29af	0.1827762
189	0x3de05563	0.10953786
190	0x3dc1358d	0.09434042
191	0xbc82b5e8	-0.01595588
192	0xbd109eb4	-0.0353076
193	0xbe284367	-0.16431962
194	0xbb5a19dc	-0.0033279574
195	0x3dd978f1	0.10618771
196	0xbd715e33	-0.058927726
197	0x3bc159c4	0.0059005935
198	0xbe4c6d04	-0.19963461
199	0x3e06e7a8	0.13174307
200	0x3d3cfc79	0.046139214
201	0x3d8ac4f1	0.06775845
202	0xbe071911	-0.13193156
203	0x3e304a2d	0.17215796
204	0x3e0e89a5	0.13919695
205	0xbe30a4c6	-0.17250356
206	0x3d3af3ba	0.045642592
207	0x3d358a3d	0.044321287
208	0x3da408b7	0.08009475
209	0x3d8ae025	0.067810334
210	0xbe55c1fe	-0.20874783
211	0x3d7bf9f0	0.061517656
212	0xbda02905	-0.07820324
213	0xbe369803	-0.17831425
214	0xbe301ce9	-0.17198528
215	0xbe2a1091	-0.16607882
216	0xbaca938d	-0.001545535
217	0xbcf0aba0	-0.029378712
218	0x3d93e35f	0.07221102
219	0xbd67c504	-0.056584373
220	0x3ebb625e	0.36598486
221	0xbcf6d5a8	-0.030131176
222	0x3e67aa3e	0.22623536
223	0x3e3743d6	0.17896971
224	0xbd7f9fd8	-0.0624083
225	0x3e757338	0.23969734
226	0xbe2436ce	-0.16036531
227	0x3e0242f4	0.12720853
228	0xbdd235fa	-0.102642015
229	0x3e475821	0.19467212
230	0xbe400842	-0.1875315
231	0xbe8a0c59	-0.26962546
232	0xbd83db25	-0.06438283
233	0xbd3534d0	-0.04423982
234	0xbdadaaec	-0.084798664
235	0x3e635f88	0.22204411
236	0x3dd05a99	0.1017353
237	0xbde87f34	-0.11352387
238	0x3dfa7bab	0.12230619
239	0xbd1801a6	-0.037110947
240	0x3c78e896	0.015192172
241	0xbd45a8a2	-0.048256524
242	0xbdd81cf0	-0.105523944
243	0xbe3871bc	-0.18012136
244	0xbd8a1340	-0.06741953
245	0x3d41e0c1	0.047333483
246	0x3b0d983b	0.002160563
247	0x3e35c04a	0.17749134
248	0x3cbc5a21	0.022992196
249	0x3e3648d2	0.17801216
250	0x3d0f3cec	0.03497021
251	0xbd72c7fa	-0.059272744
252	0xbe0f1edf	-0.1397662
253	0xbe24054f	-0.1601765
254	0x3d47ae82	0.048750408
255	0x3dbc6e84	0.09200767

conv4.bias f4 [32]
0	0x3c575b1b	0.01314428
1	0x3d23d83b	0.040001135
2	0xbc3e9486	-0.01163209
3	0x3c90f8f3	0.017696833
4	0x3c1e00cb	0.009643744
5	0x3c90a45b	0.017656496
6	0x3c561bf1	0.013068185
7	0xbc2d6b46	-0.010584658
8	0x3c98b693	0.018641746
9	0x3d12ee28	0.035871655
10	0x3d257056	0.040390335
11	0x3bddc090	0.00676734
12	0x3cace89e	0.021107014
13	0x3c836dc0	0.016043544
14	0x3cf0e623	0.029406613
15	0xbd042944	-0.032265916
16	0x3a15c14a	0.0005712701
17	0xbcb06660	-0.021533191
18	0xbd1c1d3f	-0.03811383
19	0x3d084cbb	0.0332763
20	0xbcdb8403	-0.026796347
21	0x3d2868a7	0.04111543
22	0x3c9cdd83	0.019148594
23	0xbcdc797b	-0.026913395
24	0x3d01b706	0.031668685
25	0x3cf19698	0.029490754
26	0xbcb85313	-0.02250055
27	0xbcf7681b	-0.030201009
28	0x3d274d13	0.040844988
29	0xbcc75b43	-0.02433551
30	0x3c0eb5a6	0.008710301
31	0x3857d5d5	5.145914e-05

conv5.weight f4 [1, 32, 3, 3]
0	0x3d1d8390	0.038455546
1	0x3df68e40	0.12038851
2	0xbe6b57f6	-0.22982773
3	0x3e49ec67	0.19719087
4	0x3f47bb71	0.7802039
5	0xbd5b731e	-0.05357658
6	0x3e6b878d	0.23000927
7	0x3e461e67	0.19347535
8	0x3e3561c2	0.17713073
9	0x3e76fd67	0.24120103
10	0xbe429f74	-0.19006139
11	0xbd834de2	-0.06411339
12	0xbf01add2	-0.50655854
13	0xbf9df2fb	-1.2339777
14	0xbd517bae	-0.05114334
15	0xbd689b39	-0.056788657
16	0xbd4b364c	-0.04961233
17	0xbd56f46e	-0.0524792
18	0x3e75282e	0.23941109
19	0xbe118cc1	-0.1421385
20	0xbca58684	-0.020205744
21	0xbec0d21b	-0.37660298
22	0x3f251f8d	0.6450127
23	0x3e743443	0.23848061
24	0x3eab9b97	0.33517143
25	0xbf118876	-0.5684885
26	0xbc9833ed	-0.018579448
27	0xbc112060	-0.008857816
28	0x3e0752ce	0.13215181
29	0x3ea245aa	0.31693774
30	0xbcf67fbc	-0.030090205
31	0x3f29f164	0.6638396
32	0x3d540160	0.051759124
33	0x3dba5bc8	0.09099537
34	0x3ead9c2f	0.3390822
35	0x3f032852	0.512334
36	0xbe5a2702	-0.21303943
37	0xbe155f1c	-0.14587063
38	0x3e150179	0.14551343
39	0xbf106cc5	-0.5641597
40	0x3f3a6611	0.7281199
41	0x3e51038f	0.20411514
42	0xbe690e36	-0.22759327
43	0xbe9428c6	-0.28937358
44	0x3e0204cb	0.12697141
45	0x3e0ecef5	0.13946135
46	0x3ecc2152	0.3986917
47	0x3e99967f	0.29997632
48	0xbec4360d	-0.38322487
49	0xbf1841e3	-0.59475535
50	0x3eb4dce4	0.35324776
51	0xbd225499	-0.03963146
52	0x3d277566	0.040883444
53	0x3e88cddc	0.26719558
54	0xbe586d88	-0.21135533
55	0x3f240197	0.64064926
56	0xbe7f89a0	-0.24954844
57	0x3f21029f	0.62894624
58	0xbeb5eb89	-0.35531262
59	0x3f27a6c7	0.6548886
60	0xbde8c322	-0.11365344
61	0x3f3bd1ad	0.73366815
62	0xbe382c70	-0.17985702
63	0xbddd12d8	-0.1079461
64	0xbde2d01a	-0.110748485
65	0xbddedcb3	-0.10881939
66	0xbcb3d9e2	-0.02195448
67	0xbfd3cb32	-1.6546385
68	0xbda8ed6a	-0.08248408
69	0xbdd9ecea	-0.10640891
70	0xbdc83012	-0.09774794
71	0xbdc581f9	-0.09643931
72	0xbeaab762	-0.33343035
73	0xbec15362	-0.3775893
74	0xbee18e18	-0.4405372
75	0xbefdb4c3	-0.49551973
76	0xbe0e1ea8	-0.13878882
77	0xbebb52bd	-0.36586562
78	0xbecefeae	-0.4042868
79	0xbed61566	-0.418132
80	0xbea485a3	-0.32133207
81	0x3e91734c	0.28408277
82	0x3ea3226b	0.31862196
83	0x3e105dae	0.14098236
84	0x3e7ec574	0.2488001
85	0x3f27bdf6	0.6552423
86	0xbe5d58da	-0.21615925
87	0x3e34bc05	0.17649849
88	0x3dba184f	0.09086668
89	0x3ccc68f4	0.02495239
90	0x3cc04aea	0.023473222
91	0x3eccd3e4	0.4000541
92	0x3de7b889	0.11314494
93	0x3eb8ea61	0.36116317
94	0xbda5abf1	-0.08089436
95	0x3ecd5a88	0.40108132
96	0xbca8ef2e	-0.020621862
97	0x3e6cde5b	0.23131697
98	0x3efed88f	0.49774596
99	0xbdb4ad8f	-0.08822166
100	0xbf452153	-0.77003974
101	0xbecb2ff1	-0.39685014
102	0xbed1be57	-0.4096553
103	0x3ea3ef56	0.32018536
104	0x3d159bd7	0.036525574
105	0xbd3b51ca	-0.045732297
106	0x3ec04bcd	0.3755783
107	0x3d42f757	0.047599163
108	0xbcdb52a5	-0.026772806
109	0xbd9af1d9	-0.0756566
110	0x3cfc795f	0.030819593
111	0x3e2ac52f	0.16676782
112	0xbfbab312	-1.4585898
113	0x3d4af422	0.04954923
114	0x3cf401f8	0.029786095
115	0x3d86ae2f	0.06576192
116	0xbc2fdc4b	-0.010733674
117	0x3e872ab6	0.26399773
118	0x3e2bc447	0.16774093
119	0x3d9ab8b3	0.0755476
120	0x3ef919fa	0.4865263
121	0x3e56d2bf	0.20978831
122	0x3e1c7ab7	0.15281187
123	0x3eb8eac3	0.3611661
124	0x3eae26b3	0.340139
125	0x3db148c0	0.08656454
126	0x3cbddb55	0.023175875
127	0x3f1d35ee	0.61410415
128	0xbe24f038	-0.16107261
129	0x3e3c02b8	0.18360412
130	0xbec3ad0f	-0.3821797
131	0x3d9a4f6a	0.07534678
132	0x3efadb7d	0.4899558
133	0x3e9fc79b	0.31206974
134	0x3eb655a6	0.3561222
135	0x3c29cd52	0.010363894
136	0xbeacc82d	-0.33746472
137	0x3cdd38e3	0.027004665
138	0xbe9e9648	-0.3097403
139	0xbf914ccf	-1.1351565
140	0xbf1cbc28	-0.61224604
141	0xbd0efde9	-0.034910116
142	0xbf20c5c4	-0.62801766
143	0xbdbc9416	-0.09207933
144	0x3e18e14a	0.14929691
145	0x3eb872e3	0.36025152
146	0xbe0da57e	-0.13832662
147	0x3e0004a8	0.12501776
148	0xbfa6da99	-1.3035461
149	0x3e9f15a4	0.31071198
150	0xbb19f71d	-0.0023493238
151	0x3e23d0e4	0.15997654
152	0x3e10fbb0	0.14158511
153	0x3e883d65	0.2660934
154	0x3ee69d7f	0.45042035
155	0x3e53754c	0.20650214
156	0x3e4036fd	0.18770976
157	0x3edf36ee	0.43596596
158	0x3e6109a4	0.21976334
159	0x3dd8110b	0.10550126
160	0xbd59ef33	-0.053206634
161	0x3ddaf37e	0.10690974
162	0x3c7331bb	0.0148434
163	0x3eb1ecb2	0.34750897
164	0xbe002604	-0.12514502
165	0x3dfe2410	0.12409222
166	0xbdf801dd	-0.121097304
167	0x3f40b7c7	0.7528042
168	0x3d7b877b	0.0614085
169	0x3ed6364c	0.418383
170	0x3e98c50e	0.2983784
171	0x3e649e99	0.22326125
172	0xbf31f330	-0.695117
173	0xbf1677f0	-0.5877676
174	0x3e8557d0	0.26043558
175	0xbf12250b	-0.57087773
176	0xbf4b79e3	-0.7948286
177	0x3e37bf68	0.1794411
178	0x3e20f57f	0.1571865
179	0x3e3f7bc8	0.18699563
180	0x3ebf877e	0.3740806
181	0x3e80d6cb	0.25163874
182	0x3e6d4796	0.23171839
183	0xbc8907b0	-0.016727298
184	0xbed3c817	-0.41363594
185	0x3f0ea70a	0.5572363
186	0x3ea7ad59	0.3274944
187	0x3eb61ee8	0.35570455
188	0xbde01c81	-0.10942937
189	0xbc661ae8	-0.014044501
190	0x3e8d63d5	0.27615228
191	0xbdbd747d	-0.09250734
192	0x3e2b5fe9	0.16735806
193	0xbfe16e57	-1.7611798
194	0x3de0cc1f	0.10976433
195	0xbda9da4a	-0.082935885
196	0x3d65a8d0	0.056069195
197	0xbd93562b	-0.071941696
198	0x3da39bd2	0.07988705
199	0xbcb37ae1	-0.02190918
200	0x3e987a64	0.29780877
201	0x3ed4e6c6	0.41582316
202	0x3ec88e06	0.39170855
203	0x3ed730a4	0.42029297
204	0x3e80716e	0.2508654
205	0x3eb1b21d	0.34706202
206	0xbd2cfd06	-0.04223349
207	0x3f09d2bb	0.53837174
208	0x3e822e8d	0.2542614
209	0x3f031f09	0.5121923
210	0x3e01b83d	0.12667938
211	0xbe82d8be	-0.25555986
212	0x3e189601	0.14900972
213	0x3d728390	0.0592075
214	0xbee4b6af	-0.44670627
215	0xbde0f25b	-0.10983726
216	0x3e861e95	0.26195207
217	0x3e6c2d68	0.23064196
218	0xbc521cb7	-0.012824229
219	0xbe9bfde6	-0.30467147
220	0xbedcabce	-0.43099827
221	0x3d468ae3	0.048472296
222	0xbe68aa69	-0.22721256
223	0xbe6e7f90	-0.23290849
224	0x3f48f02c	0.78491473
225	0x3e35cc64	0.1775375
226	0x3dfd39ae	0.12364517
227	0xbe72154c	-0.23640937
228	0x3dbfcb5d	0.0936496
229	0xbd8eaafe	-0.06966208
230	0xbf890fda	-1.0707963
231	0x3e68b0a7	0.22723638
232	0x3e81a8b0	0.2532401
233	0xbee8cc1e	-0.4546823
234	0x3e87d754	0.2653147
235	0xbb4aedd9	-0.0030964522
236	0x3ec7f954	0.3905741
237	0x3ea99f2d	0.33129254
238	0xbf1c5a14	-0.6107495
239	0xbef3fa3e	-0.47651857
240	0x3e6eca6b	0.23319404
241	0x3dcbf367	0.09958535
242	0xbe3ad3f9	-0.18244924
243	0xbe93235e	-0.2873792
244	0xbe0a9be4	-0.1353603
245	0x3ec34e85	0.38145843
246	0x3eec5494	0.46158278
247	0xbce7604c	-0.02824416
248	0xbe29e538	-0.16591346
249	0x3efdba24	0.49556077
250	0x3e699861	0.22812034
251	0x3eff4498	0.4985702
252	0xbe6b1666	-0.22957763
253	0xbece7ee8	-0.40331197
254	0xbdd4736c	-0.103735775
255	0xbeed6c77	-0.46371815

bn0.weight f4 [15]
0	0x3fa4fd5f	1.2889823
1	0x4036d512	2.8567548
2	0x40232ad5	2.5494893
3	0x3f800000	1.0
4	0x3ff47a78	1.9099874
5	0x3fadf824	1.3591352
6	0x3f878aad	1.0589195
7	0x3f729d9e	0.94771755
8	0x3f50b041	0.8151894
9	0x3f5c95af	0.861659
10	0x3f503b6e	0.8134068
11	0x3f4336ff	0.7625579
12	0x3f10ae7e	0.56516254
13	0x3f28fc7d	0.66010267
14	0x3f483664	0.78207994

bn0.bias f4 [15]
0	0x3ffb84db	1.9649919
1	0x3f304d68	0.6886811
2	0x3f7ad2f6	0.9797815
3	0x00000000	0.0
4	0x3eae40ba	0.34033757
5	0x3e19adac	0.15007657
6	0x3cf15883	0.029461151
7	0xbcb5fc1f	-0.022214947
8	0xbb9a56e6	-0.004710066
9	0xbc3c2168	-0.011482574
10	0xbc3c3934	-0.011488248
11	0xbc321850	-0.010870054
12	0xbcbc134e	-0.022958424
13	0xbc8f5eee	-0.01750132
14	0xbc3bee29	-0.011470356

bn0.running_mean f4 [15]
0	0x3f3674c4	0.7127192
1	0x3e126af4	0.14298612
2	0x3e13c1f1	0.14429452
3	0x3f7ffff8	0.9999995
4	0x3ca2936e	0.01984569
5	0x3d094f3b	0.033522826
6	0x3d509576	0.050923787
7	0x3d95f6fa	0.07322498
8	0x3d47e2e3	0.04880036
9	0x3ce5374f	0.027980475
10	0x3c9174eb	0.017755946
11	0x3c2061fd	0.009788987
12	0x3b333f4f	0.0027350967
13	0x3b338d79	0.0027397557
14	0x3b345dbe	0.0027521695

bn0.running_var f4 [15]
0	0x3e51536e	0.20441982
1	0x3dfaccd6	0.122461006
2	0x3dfcb512	0.12339224
3	0x00000004	6e-45
4	0x3c9f4ea6	0.019446682
5	0x3d04adf0	0.032392442
6	0x3d45e5f5	0.048315007
7	0x3d8af493	0.0678493
8	0x3d3e17d9	0.04640946
9	0x3cdeb80d	0.027187372
10	0x3c8ed1fe	0.017434116
11	0x3c1ec469	0.0096903825
12	0x3b32c30e	0.0027276906
13	0x3b3310cf	0.002732325
14	0x3b33dff1	0.0027446712

bn1.weight f4 [32]
0	0x3f949361	1.1607476
1	0x3fda0754	1.7033486
2	0x3f82094c	1.0159087
3	0x3fbf6abb	1.4954447
4	0x3f9899cc	1.1921935
5	0x3fc2a731	1.5207273
6	0x3f8ea644	1.114449
7	0x3f896d70	1.0736523
8	0x3fe0c309	1.755952
9	0x3f5ce2e5	0.86283714
10	0x3f9799c6	1.1843803
11	0x3f9db0da	1.2319596
12	0x3f8af133	1.0854858
13	0x3f81d911	1.0144368
14	0x3f529965	0.8226531
15	0x3f843213	1.0327781
16	0x3fbbc51e	1.466953
17	0x3f92817d	1.1445767
18	0x3f960545	1.1720358
19	0x3f71cca5	0.9445289
20	0x3fbe26cc	1.485559
21	0x3fa82461	1.3136102
22	0x3f9446dc	1.1584125
23	0x3fa00e26	1.2504318
24	0x3fa05142	1.2524798
25	0x3f87dc7a	1.0614159
26	0x3feacb49	1.8343288
27	0x3fa4304f	1.2827243
28	0x3fc1cb6d	1.5140206
29	0x3fc1a5f0	1.5128765
30	0x3f8f45fd	1.1193234
31	0x3fa1d9e7	1.2644624

bn1.bias f4 [32]
0	0xbee54797	-0.4478118
1	0xbe863950	-0.262156
2	0xbe782a08	-0.24234784
3	0xbe17b28b	-0.14814202
4	0xbe946c97	-0.28989097
5	0xbd89b724	-0.067243844
6	0xbd92f23f	-0.07175111
7	0xbd0174b6	-0.031605445
8	0xbd66bc0c	-0.05633168
9	0x3e2f4250	0.1711514
10	0x3e0cfaa9	0.13767494
11	0x3e250d22	0.16118291
12	0xbe11652e	-0.14198753
13	0x3f21a962	0.6314908
14	0xbe6e343c	-0.23262113
15	0x3d7d0969	0.061776552
16	0xbe96a52f	-0.294229
17	0x3dd1033f	0.10205697
18	0x3e31fef3	0.17382412
19	0x3dca08c8	0.09864956
20	0xbe615df7	-0.22008501
21	0xba905e60	-0.0011014454
22	0xbf252f2d	-0.6452511
23	0x3e16c2de	0.14722773
24	0xbeadc2fc	-0.33937824
25	0xbd1537f6	-0.03643032
26	0xbe961da6	-0.29319495
27	0xbe8a6eae	-0.27037567
28	0x3ecfa186	0.4055292
29	0xbe9b132a	-0.3028806
30	0xbe118ad6	-0.14213118
31	0x3d2fd8f2	0.042931505

bn1.running_mean f4 [32]
0	0xc09e25c4	-4.94211
1	0xbe9501a9	-0.2910283
2	0xc089bc3a	-4.304227
3	0x402172a3	2.5226219
4	0xbede9be9	-0.43478325
5	0x3fdf2d47	1.7435693
6	0xbe10783c	-0.14108366
7	0x3f150d26	0.5822319
8	0xc0390662	-2.8910146
9	0xc05a459b	-3.4104984
10	0x3fa200d9	1.2656509
11	0x406d622c	3.709117
12	0x3f8929aa	1.071584
13	0xc02b9f99	-2.681616
14	0xbfb5e74f	-1.4211215
15	0xbf9e7b7b	-1.2381433
16	0xbf8ef9e6	-1.1170013
17	0x4092f594	4.592478
18	0x40dc41ed	6.8830476
19	0x3f1b81d1	0.6074496
20	0xc049680a	-3.146975
21	0x4012e1e5	2.2950375
22	0xc08ede27	-4.464618
23	0xc08aa0c4	-4.3321247
24	0xbe7f8d86	-0.2495633
25	0x408227be	4.0673513
26	0xc002ad3c	-2.0418234
27	0x3fb6a207	1.4268197
28	0xc0a2a311	-5.0824056
29	0xc0f2db17	-7.5892444
30	0xc03e5bd5	-2.974355
31	0x3f640f85	0.8908618

bn1.running_var f4 [32]
0	0x41ccc689	25.596941
1	0x42827c78	65.2431
2	0x420b8ac5	34.885517
3	0x419612df	18.759214
4	0x41c9787f	25.183836
5	0x424b250f	50.78619
6	0x41a2b204	20.336922
7	0x41d42f76	26.523174
8	0x429555cd	74.66758
9	0x41ba3559	23.276049
10	0x41e3be7f	28.468016
11	0x41ddf3ad	27.743982
12	0x41b89d2a	23.07674
13	0x41805f11	16.04642
14	0x414563f4	12.336903
15	0x4242ef75	48.733845
16	0x423f5f38	47.842987
17	0x41eea999	29.832811
18	0x41ad6dbf	21.678587
19	0x41c44c3c	24.537224
20	0x427fba17	63.93173
21	0x42107fad	36.124683
22	0x41eaa8f3	29.332495
23	0x4207ef30	33.98358
24	0x4196ca24	18.848701
25	0x41bd4d22	23.662663
26	0x42502740	52.03833
27	0x4208a56c	34.161545
28	0x42c150fc	96.65817
29	0x41dc5052	27.539219
30	0x41da51cb	27.289938
31	0x4216c57c	37.692856

bn2.weight f4 [64]
0	0x3fa68621	1.3009683
1	0x3f90ef24	1.132298
2	0x3f04e926	0.51918256
3	0x3f801d12	1.0008872
4	0x3f91ea73	1.1399673
5	0x3f807b51	1.0037633
6	0x3f8c8f57	1.0981244
7	0x3f9eebc2	1.2415698
8	0x3f972cbb	1.1810526
9	0x3f929a15	1.1453272
10	0x3f7963b6	0.9741777
11	0x3fa1c46a	1.2638066
12	0x3f8902ba	1.0703957
13	0x3f9ec4ed	1.2403847
14	0x3f852b49	1.0403835
15	0x3f80c91c	1.0061374
16	0x3fa134d5	1.2594248
17	0x3f86776c	1.0505195
18	0x3f8f38bd	1.118919
19	0x3f96475b	1.1740526
20	0x3f99b3b5	1.2007967
21	0x3f8d853e	1.1056287
22	0x3fb15d73	1.3856643
23	0x3f915b8c	1.1356063
24	0x3f8984df	1.0743674
25	0x3f92009c	1.1406436
26	0x3f6f7e3e	0.93552005
27	0x3f9c3e61	1.2206537
28	0x3f89749b	1.073871
29	0x3fa59ee0	1.293911
30	0x3f9fbbb8	1.2479162
31	0x3f91dd20	1.1395607
32	0x3f9e23fd	1.2354733
33	0x3f8a6a5c	1.0813708
34	0x3f63ddf1	0.8901053
35	0x3fa4d75f	1.2878226
36	0x3fa28aa1	1.2698556
37	0x3f734c57	0.9503836
38	0x3fb23b82	1.392441
39	0x3f9a761a	1.2067292
40	0x3f377252	0.71658814
41	0x3f8c21b5	1.0947787
42	0x3f89cce1	1.0765649
43	0x3f96b98e	1.1775377
44	0x3fb1eb32	1.3899901
45	0x3f967d26	1.1756942
46	0x3f87b46d	1.0601937
47	0x3fa78b4e	1.3089387
48	0x3f825410	1.0181904
49	0x3f80e1d8	1.0068922
50	0x3f84d3e3	1.0377163
51	0x3f5d7323	0.8650381
52	0x3f6f9156	0.9358114
53	0x3f987fe9	1.1914035
54	0x3f81ddc7	1.0145806
55	0x3f8b4e0a	1.0883191
56	0x3f913204	1.1343389
57	0x3f80b388	1.0054789
58	0x3f997121	1.1987649
59	0x3f8f2cb9	1.1185523
60	0x3f8bfcdf	1.0936545
61	0x3fb1e8f4	1.3899217
62	0x3f991a6d	1.196119
63	0x3f5f4986	0.8722156

bn2.bias f4 [64]
0	0xbe29111e	-0.16510436
1	0xbd2eddae	-0.04269188
2	0xbda07172	-0.07834138
3	0xbe447318	-0.1918453
4	0xbd9386ae	-0.072034225
5	0xbe9f37fe	-0.31097406
6	0xbea9b365	-0.3314468
7	0xbedfdbcc	-0.4372238
8	0xbecdd484	-0.402012
9	0xbebafb5c	-0.36519897
10	0xbe0ad612	-0.13558224
11	0xbe8b6efd	-0.27233115
12	0xbee32398	-0.44363093
13	0xbe6d7377	-0.23188578
14	0xbe3eeec6	-0.18645772
15	0xbe91df13	-0.28490505
16	0xbea010c8	-0.31262803
17	0xbe74b0d2	-0.23895577
18	0xbe62c995	-0.2214721
19	0xbed2b927	-0.41156885
20	0xbe7b28ec	-0.24527329
21	0xbeb131e4	-0.34608376
22	0xbf0d55af	-0.5520887
23	0xbf0f444d	-0.55963594
24	0xbefdca11	-0.49568227
25	0xbe968267	-0.29396364
26	0xbe122bae	-0.14274475
27	0xbeb8e664	-0.36113274
28	0xbec3a0fd	-0.38208762
29	0xbf37c0e8	-0.71778727
30	0xbf0229dd	-0.5084513
31	0xbed359d7	-0.4127948
32	0xbebf4f9c	-0.37365425
33	0xbe9c79cd	-0.30561677
34	0xbed42fa8	-0.4144261
35	0xbe432c76	-0.19059929
36	0xbe95ff88	-0.29296517
37	0xbe835de7	-0.2565758
38	0xbefa1ba0	-0.488492
39	0xbed74664	-0.4204589
40	0xbeb56d7b	-0.3543509
41	0xbecead39	-0.40366533
42	0xbee54548	-0.4477942
43	0xbe8f5f6c	-0.2800249
44	0xbe8fe927	-0.2810757
45	0xbe96a9ae	-0.2942633
46	0xbe472226	-0.1944662
47	0xbf0a696d	-0.54067117
48	0xbdb95a5a	-0.09050436
49	0xbec0a708	-0.37627435
50	0xbe9885cf	-0.29789588
51	0xbee03155	-0.43787637
52	0xbea95a62	-0.3307677
53	0xbea044bd	-0.31302443
54	0xbe91452a	-0.2837308
55	0xbf01001f	-0.5039081
56	0xbe99d6ba	-0.30046636
57	0xbe1a1d6d	-0.15050288
58	0xbe773536	-0.24141392
59	0xbee5e9b7	-0.44904873
60	0xbec602be	-0.38673967
61	0xbeb47036	-0.3524186
62	0xbf165c01	-0.58734137
63	0xbe7607b9	-0.24026383

bn2.running_mean f4 [64]
0	0xbfee3f85	-1.8613135
1	0xc07a2fa0	-3.9091568
2	0xbfc2f655	-1.5231425
3	0xc01e2167	-2.4707887
4	0xbf904014	-1.1269555
5	0xbf0e42c9	-0.55570656
6	0xc06dd89f	-3.7163465
7	0xc06fd0f0	-3.7471275
8	0xbfdbd7af	-1.7175196
9	0xc027c4c9	-2.6213858
10	0xbe495451	-0.1966107
11	0xc0376df6	-2.8660865
12	0xbf14a6fa	-0.58067286
13	0xc0311611	-2.7669718
14	0xbfeae311	-1.8350545
15	0xc03ef4db	-2.9836948
16	0xbfc05f6d	-1.5029122
17	0x3f6d2d0c	0.9264686
18	0xc0882101	-4.254029
19	0xc0a5115e	-5.15837
20	0xc07792c7	-3.8683336
21	0xc05b45d7	-3.4261377
22	0xc09df473	-4.93609
23	0xc0271a50	-2.610981
24	0xc053f306	-3.311708
25	0xbf42e775	-0.76134425
26	0xbea5572f	-0.32293078
27	0x3e95ab79	0.29232386
28	0xc06fcb78	-3.7467937
29	0xc0c92130	-6.285301
30	0xbfe59b54	-1.7938027
31	0xc0575d76	-3.3650794
32	0xbf277207	-0.65408367
33	0xbfee1284	-1.85994
34	0xbf8553da	-1.0416214
35	0xc062a6a5	-3.5414212
36	0xc0290ea7	-2.6415193
37	0xbfe2b7b0	-1.7712307
38	0xbedb4230	-0.42823935
39	0xc0946670	-4.6375046
40	0xbfe696de	-1.8014791
41	0xc012125a	-2.28237
42	0xbf6f9ad9	-0.93595654
43	0xc010e67b	-2.2640674
44	0xc05b88a2	-3.4302144
45	0xbff861c9	-1.9404842
46	0xbf8c96a4	-1.0983472
47	0xbfd709e7	-1.6799897
48	0xc01e9332	-2.477734
49	0xbfc5f1ac	-1.5464377
50	0xc0845d93	-4.1364226
51	0xc0420540	-3.0315704
52	0xbfc396a0	-1.5280342
53	0xc01f003a	-2.4843888
54	0xc01d5951	-2.4585764
55	0xc0538d3d	-3.3054955
56	0xc033b15b	-2.8077
57	0xbf89f938	-1.077918
58	0xbf59ca7b	-0.85074586
59	0xc05a9dba	-3.4158769
60	0xbf7201b4	-0.9453385
61	0xc08d0adc	-4.4075756
62	0xc032bbf3	-2.7927215
63	0xbef605fa	-0.48051435

bn2.running_var f4 [64]
0	0x41576d11	13.464128
1	0x418a9365	17.32197
2	0x401c74dd	2.4446328
3	0x4104a975	8.291371
4	0x4153e7f9	13.244134
5	0x40cc8182	6.390809
6	0x409f2565	4.973315
7	0x40a18c19	5.048352
8	0x40ed2bbc	7.4115887
9	0x40d0197e	6.503112
10	0x410b7394	8.715717
11	0x40f1e80e	7.559577
12	0x40b53b94	5.6635227
13	0x410d0396	8.813375
14	0x40f9a422	7.8012857
15	0x40cd8068	6.4219246
16	0x40fd8983	7.923036
17	0x40e1397d	7.0382676
18	0x40dad7ed	6.838858
19	0x40ed68ea	7.419057
20	0x40eedbc7	7.4643283
21	0x40d927e2	6.7861185
22	0x410569c1	8.338319
23	0x40f12279	7.535458
24	0x408cf6d8	4.4051323
25	0x40c10cea	6.0328264
26	0x40bafcc6	5.843356
27	0x41006e60	8.026947
28	0x409c1056	4.876994
29	0x41528361	13.157075
30	0x4127f32b	10.496867
31	0x40b95393	5.791452
32	0x416e0e84	14.878544
33	0x40987894	4.764719
34	0x40ae65d9	5.4499326
35	0x40d2490c	6.571417
36	0x416dc5a8	14.860756
37	0x4091f5a6	4.5612364
38	0x4104716c	8.277691
39	0x4103f7ea	8.248026
40	0x409ea3f7	4.9575152
41	0x40ba8f9b	5.83003
42	0x40db60cf	6.8555675
43	0x40996c30	4.7944565
44	0x4177f05e	15.496183
45	0x40da461b	6.821058
46	0x41195277	9.582633
47	0x40db4bdf	6.8530116
48	0x40d5167d	6.658995
49	0x404d990e	3.2124667
50	0x40b9a5b5	5.801478
51	0x406c255e	3.6897807
52	0x40b739f8	5.7258263
53	0x41111402	9.067385
54	0x40a39f98	5.1132317
55	0x412e6858	10.900475
56	0x40bbf713	5.8739104
57	0x40908bdc	4.5170727
58	0x40caf482	6.342347
59	0x40c9d4eb	6.307241
60	0x40e30dfc	7.095457
61	0x413002f5	11.000722
62	0x412675a6	10.403723
63	0x407b9a55	3.9312947
