models/valueNet.pt (torch, 45393 bytes, 11 tensors)

conv1.weight f4 [16, 15, 3, 3]
0	0xbc9be6f9	-0.019031035
1	0x3df3f326	0.11911611
2	0xbe092f7f	-0.13397025
3	0xbe06bcaf	-0.13157915
4	0x3d494499	0.049137685
5	0xbcce1700	-0.025157452
6	0xbc58ca30	-0.013231799
7	0x3e11b7c0	0.14230251
8	0xbd8671f8	-0.065647066
9	0x3d3b108f	0.04567009
10	0xbd4e4d19	-0.050366495
11	0xbbc1aff8	-0.0059108697
12	0xbd1c1d93	-0.03811414
13	0xbd832412	-0.06403364
14	0xbcdb62ce	-0.026780512
15	0x3d4ac2f3	0.049502324
16	0xbccf0d21	-0.025274815
17	0x3db1892a	0.0866874
18	0xbbd2fab4	-0.0064385775
19	0xbdcae052	-0.09906067
20	0x3d26c86f	0.040718492
21	0x3dce6eca	0.10079725
22	0xbdb9e476	-0.090767786
23	0x3d84602e	0.06463657
24	0xbc0c1910	-0.008550897
25	0xbd8de641	-0.06928683
26	0x3d4d8d39	0.05018351
27	0xbd6c1046	-0.057632707
28	0xbce97f45	-0.02850307
29	0xbcf220c6	-0.029556643
30	0xbc8e370a	-0.017360229
31	0x3dc053bb	0.0939097
32	0xbd93e858	-0.072220504
33	0xbcda850c	-0.02667477
34	0xbd242f91	-0.040084425
35	0xbdcab545	-0.09897856
36	0xbbc272a9	-0.0059340787
37	0xbb03ccfe	-0.0020111199
38	0x3de0b123	0.10971286
39	0x3cede9ed	0.029042209
40	0x3c09ae81	0.008403421
41	0xbd4342cf	-0.047671136
42	0x3d813937	0.06309741
43	0xbe139bda	-0.14414921
44	0xbc359843	-0.011083665
45	0x3bbaee5c	0.005704684
46	0x3d3a134b	0.045428555
47	0x3cfbb9e5	0.03072829
48	0xbc4684eb	-0.012116651
49	0xbd0b3dc8	-0.033994466
50	0x3ca2f3c3	0.019891625
51	0x3dcadd6c	0.09905514
52	0x3ba4c461	0.005028293
53	0xbaa81af6	-0.0012825418
54	0x3da91b00	0.08257103
55	0xbdbb7e3b	-0.09154936
56	0x3d26c509	0.04071525
57	0x3c4bec1d	0.0124464305
58	0xbd329959	-0.043603275
59	0x3b8f7324	0.0043777395
60	0x3d64174c	0.05568628
61	0xbc0f0daa	-0.008731285
62	0xbc2273c2	-0.009915294
63	0x3d382030	0.04495257
64	0xbc58db62	-0.013235899
65	0x3d1502e5	0.036379714
66	0x3cc25cf6	0.023725968
67	0xbd0c4daf	-0.034253772
68	0x3dd1b6c2	0.102399364
69	0x3d95686f	0.0729531
70	0xbdf50fa0	-0.11965871
71	0xbc25b7b6	-0.010114601
72	0x3d482937	0.04886743
73	0x3cec34c1	0.028833749
74	0x3dee32e9	0.11630804
75	0x3de7b07f	0.11312961
76	0xbd0f7e24	-0.035032406
77	0xbca8d948	-0.02061142
78	0x3d279752	0.040915795
79	0xbe274bb9	-0.1633748
80	0xbd0cd55c	-0.034383163
81	0x3e0c4651	0.13698699
82	0xbbd314b1	-0.0064416756
83	0xbce1caed	-0.027562583
84	0x3db38e89	0.08767421
85	0xbdc5b608	-0.0965386
86	0x3d0e3987	0.03472283
87	0x3d2763a5	0.040866513
88	0xbc953e26	-0.018218111
89	0xbd3482dc	-0.04407011
90	0x3cd5ee12	0.026114497
91	0x3c2d757a	0.010587091
92	0x3cc761a2	0.024338547
93	0x3cf6165f	0.030039964
94	0xbe301143	-0.17194085
95	0xbd8a52f3	-0.067541026
96	0x3cf31e69	0.029677587
97	0xbd9cfd9b	-0.07665559
98	0xbd1398b0	-0.036034286
99	0x3bdd0b73	0.0067457496
100	0x3d41d836	0.047325335
101	0x3d896d05	0.06710247
102	0x3d6a8dbf	0.057264086
103	0xbd138a18	-0.03602037
104	0xbd30b3a1	-0.043140057
105	0x3d8d5b3d	0.06902168
106	0xbd76cc3b	-0.060253363
107	0xbd3a0a48	-0.04541996
108	0x3d9fd59a	0.07804413
109	0x3cde316a	0.027123172
110	0xbd900f74	-0.070341974
111	0x3e3db081	0.18524362
112	0xbd3de0a3	-0.04635681
113	0x3e1b0640	0.15139103
114	0x3e58299e	0.21109626
115	0xbd8c8967	-0.06862145
116	0x3c8e4d6c	0.017370902
117	0x3d682d5f	0.056683894
118	0x3b33804c	0.0027389703
119	0x3e45701a	0.19281045
120	0x3e01099f	0.12601326
121	0x3e38844d	0.18019219
122	0x3d122a59	0.035684917
123	0x3ddbf11c	0.10739347
124	0xbcae9636	-0.02131186
125	0x3da65aba	0.081227735
126	0x3e186fab	0.14886348
127	0x3dd9774f	0.106184594
128	0x3e3bfb8c	0.18357676
129	0x3e5b5b32	0.21421507
130	0xbc834398	-0.016023442
131	0x3cad3fc3	0.021148568
132	0x3d25a8fa	0.04044435
133	0x3d24cdea	0.040235437
134	0x3e28db2f	0.16489862
135	0xbce02ba5	-0.027364561
136	0x3a0a3b6d	0.00052731374
137	0xbdbfa4f7	-0.093576364
138	0x3c93957e	0.01801562
139	0x3d8d0e76	0.06887524
140	0x3dc7bb0b	0.097524725
141	0x3ba1fa5f	0.0049431766
142	0x3d11610c	0.03549294
143	0xbdcc1d7d	-0.09966562
144	0xbd8a47b1	-0.06751955
145	0xbd1aee98	-0.037825197
146	0x3df19789	0.11796481
147	0xbcc5ed11	-0.024160894
148	0xbd191b7c	-0.037379727
149	0xbd25aca2	-0.04044784
150	0xbdea4257	-0.114384346
151	0xbdbf7aef	-0.093496196
152	0x3d021b5e	0.03176438
153	0x3d7ce86b	0.06174509
154	0x3d932002	0.071838394
155	0xbdc3057e	-0.09522532
156	0x3d5a8eed	0.05335896
157	0xbe0c6dce	-0.13713762
158	0xbb686519	-0.003546065
159	0xbd187008	-0.037216216
160	0x3d001dbd	0.03127836
161	0x3bbda183	0.005787076
162	0xbd9d18c0	-0.07670736
163	0xbd7d7e83	-0.06188823
164	0xba2e07d9	-0.00066387426
165	0xbb1eb5f0	-0.002421733
166	0xbd086bf8	-0.033306092
167	0x3d1e77c8	0.03868845
168	0xbde84e0d	-0.11343012
169	0xbcd1e62c	-0.02562245
170	0x3d669f44	0.05630423
171	0xbb486140	-0.0030575544
172	0x3dee2ad4	0.116292626
173	0x3de57ae9	0.11205084
174	0xbdc44137	-0.09582751
175	0x3df0e760	0.11762881
176	0xbad8cba8	-0.0016540186
177	0xbdd52ed4	-0.104093224
178	0x3cda9788	0.026683584
179	0xbce030c3	-0.027367001
180	0xbc0364f7	-0.008019677
181	0xbd875b39	-0.06609196
182	0x3ddf4413	0.10901656
183	0x3ccb68db	0.024830272
184	0x3cc534a0	0.024072945
185	0x3dc09dc8	0.094050944
186	0xbdb48cf9	-0.08815951
187	0xbcbc3bcc	-0.022977732
188	0xbd5aa3fe	-0.05337905
189	0x3cbe3610	0.023219138
190	0x3d8d4a34	0.06898919
191	0x3d985551	0.07438148
192	0xbd0047e8	-0.031318575
193	0xbd9fff1f	-0.07812332
194	0xbd72560c	-0.059164092
195	0xbd98238c	-0.07428655
196	0xbd7a458a	-0.061101474
197	0x3d80eb7e	0.062949166
198	0xbcedcb77	-0.029027684
199	0x3d3969bb	0.045266848
200	0x3d0be8d3	0.034157585
201	0x3d2b5175	0.04182573
202	0xbe005d3a	-0.12535563
203	0xbd828b1b	-0.063741885
204	0x3b9030d3	0.0044003516
205	0x3e06cad7	0.13163315
206	0x3d5806b0	0.052740753
207	0x3e00e532	0.12587431
208	0x3dc3cf86	0.09561066
209	0x3d02bac2	0.031916387
210	0x3d3f8ef9	0.04676721
211	0xbd4c6731	-0.0499031
212	0xbc06502d	-0.008197826
213	0x3c9f004e	0.019409325
214	0xbcd7d699	-0.026347445
215	0x3d2f266c	0.04276125
216	0xbc3f889b	-0.011690284
217	0xbb73dcc4	-0.0037210444
218	0x3dd8a810	0.105789304
219	0xbe02166d	-0.12703867
220	0xbde4c8cd	-0.11171112
221	0x3d4a44c4	0.049381986
222	0x3c0537ac	0.008130949
223	0x3b5ace21	0.0033387023
224	0xbbfc6abf	-0.007703155
225	0x3dd2f224	0.10300091
226	0xbcb734cd	-0.022364045
227	0xbcae0260	-0.021241367
228	0xbb7671c7	-0.0037604438
229	0xbdd55f97	-0.10418623
230	0xbd21e77d	-0.039527405
231	0x3d88555c	0.06656906
232	0x3cc0aa48	0.023518696
233	0x3d5388c9	0.05164412
234	0x3d8d32e6	0.06894474
235	0xbd8c01f0	-0.06836307
236	0x3d7e9340	0.062152147
237	0xbd67066d	-0.056402612
238	0xbdd2e8be	-0.10298298
239	0x3ca07b67	0.019590093
240	0x3d03fb7e	0.032222264
241	0x3d3db03e	0.046310656
242	0xbd0c5744	-0.03426291
243	0x3cfadfd3	0.030624306
244	0x3de3156e	0.11088072
245	0x3c9e4669	0.019320684
246	0x3d9a0712	0.0752088
247	0xbd7f7ed4	-0.062376812
248	0x3db2c6f0	0.087293506
249	0xbc78fdf5	-0.015197267
250	0xbdd3c5d0	-0.10340464
251	0x3d1b2627	0.03787818
252	0x3e483fff	0.19555663
253	0xbb141517	-0.0022595578
254	0x3e171c81	0.14756967
255	0x3d1ac270	0.037783086

conv1.bias f4 [16]
0	0x3da978a1	0.08274961
1	0x3b5723bf	0.0032827703
2	0xbcc19390	-0.023629934
3	0x3cedec0e	0.029043224
4	0xbdae8ef3	-0.08523359
5	0xbcfbc6c5	-0.03073443
6	0x3c60869a	0.0137039665
7	0xba61f011	-0.00086188415
8	0x3d0121f1	0.03152651
9	0x3d62bc86	0.05535557
10	0xbd838ad2	-0.06422962
11	0xbcb011c6	-0.02149285
12	0x3daa3777	0.0831136
13	0x3c8f5d3e	0.017500516
14	0xbca43ad5	-0.020047585
15	0x3d244f83	0.04011489

conv2.weight f4 [16, 16, 3, 3]
0	0x3e2454ed	0.16048022
1	0x3e190064	0.14941555
2	0x3de46edf	0.111539595
3	0x3dcffb63	0.1015537
4	0x3e3ae461	0.18251182
5	0x3dfe55a5	0.12418679
6	0x3e1fe4d4	0.15614635
7	0x3da9227f	0.08258533
8	0x3dbe535f	0.092932455
9	0x3e02caf7	0.12772737
10	0x3d5a48dc	0.05329214
11	0x3d725803	0.059165966
12	0x3e0849f1	0.13309456
13	0x3d809aca	0.06279524
14	0x3d8184e1	0.06324173
15	0x3e382891	0.17984225
16	0x3de23828	0.11045867
17	0x3dc449b7	0.095843725
18	0xbca6aede	-0.020347055
19	0xbc2f4074	-0.010696519
20	0xbd5fa8ed	-0.05460446
21	0xbd99887c	-0.074967355
22	0xbcb8db5a	-0.022565532
23	0xbd9a3361	-0.07529331
24	0x3be77187	0.007063094
25	0xbda10be9	-0.078636
26	0x3cddff6f	0.02709934
27	0x3d4b502d	0.04963701
28	0xbd5091f7	-0.050920453
29	0x3db5cc61	0.08876873
30	0xbd988d38	-0.0744881
31	0x3b937d50	0.0045010224
32	0xbcfb6bfd	-0.030691141
33	0xbd84b1a1	-0.064791925
34	0x3cbaddc2	0.02281082
35	0xbc8b365a	-0.01699369
36	0x3dbae8b3	0.09126415
37	0xbcde95a4	-0.027170964
38	0x3debf34f	0.11521017
39	0x3d942140	0.072329044
40	0x3dcf3675	0.10117809
41	0x3c42923d	0.011875686
42	0xbd035051	-0.032059018
43	0xbd043140	-0.03227353
44	0x3dc912e4	0.09818056
45	0xbbdf4b54	-0.0068143997
46	0x3ccb768b	0.0248368
47	0x3cc5029d	0.024049098
48	0x3d430a4a	0.047617234
49	0xbd25b6b1	-0.04045743
50	0x3dc7b3b5	0.09751073
51	0xbd110222	-0.035402425
52	0x3dd02718	0.101637065
53	0xbc07f628	-0.008298434
54	0xbc152c9f	-0.009104877
55	0x3c8c507b	0.01712822
56	0x3d5d9834	0.05410023
57	0x3be859c0	0.007090777
58	0xbd53820c	-0.051637694
59	0x3dab79ac	0.083728164
60	0x3dd72894	0.105057865
61	0x3d966d1b	0.07345029
62	0x3de8c587	0.113658
63	0x3bb0d8c6	0.005396935
64	0xbc7c228b	-0.015389095
65	0xbdc0990b	-0.09404191
66	0xbd9f9880	-0.07792759
67	0xbd5faa6d	-0.05460589
68	0xbd2df630	-0.04247111
69	0x3cab3f9a	0.020904351
70	0xbd502b65	-0.050822634
71	0xbd150a18	-0.03638658
72	0xbd64b9e3	-0.055841338
73	0xbd14626a	-0.036226667
74	0x3d5842df	0.05279815
75	0xbcead180	-0.02866435
76	0xbca520bc	-0.02015721
77	0xbd424cdd	-0.047436584
78	0xbe0bb53d	-0.13643356
79	0xbd9f84d8	-0.0778901
80	0xbd9a44c3	-0.075326465
81	0xbcf1f7ef	-0.02953717
82	0xbd25de58	-0.040495247
83	0x3d634abe	0.0554912
84	0x3c0a9005	0.0084571885
85	0xbd5fc7cd	-0.054633904
86	0x3d970d3b	0.073755704
87	0xbc559a5e	-0.013037292
88	0x3d12c9d7	0.03583702
89	0xbd861bce	-0.06548272
90	0x3c5989e0	0.013277501
91	0x3d4ed2c7	0.05049398
92	0xbbf8d76f	-0.007594041
93	0xbd51ccd0	-0.051220715
94	0x3d757267	0.059923556
95	0x3d27ce87	0.040968444
96	0x3ca6a145	0.020340571
97	0x3c6652e5	0.0140578495
98	0x3b093765	0.0020937559
99	0x3dcc4d2a	0.099756554
100	0x3cab183d	0.020885581
101	0xbc149d7b	-0.009070749
102	0x3d9a087e	0.07521151
103	0x3d4ff8a7	0.050774243
104	0x3d76f488	0.060291797
105	0x3d16fad6	0.03686031
106	0x3ca73276	0.020409804
107	0x3cab0a9a	0.020879079
108	0x3c9c54f5	0.01908348
109	0xbd922193	-0.0713531
110	0xbda658b5	-0.08122388
111	0x3d0b646f	0.034031328
112	0xbd439bc2	-0.047755964
113	0xbbe9a61e	-0.0071303984
114	0x3d0242d0	0.031802
115	0x3c88a2d4	0.016679205
116	0x3d676f38	0.05650255
117	0xbc36af83	-0.011150244
118	0xbb63673c	-0.0034698984
119	0xbd144869	-0.03620187
120	0xbc2b3191	-0.010448829
121	0x3cb7148a	0.022348661
122	0x3d143283	0.036180984
123	0xbdc9474e	-0.098280534
124	0xbd4f1015	-0.050552446
125	0xbdc1bc72	-0.09459771
126	0xbd1a192d	-0.037621666
127	0x3d3c9be2	0.0460471
128	0xbd9890ce	-0.07449494
129	0xbdb45974	-0.08806124
130	0x3d10b080	0.035324574
131	0xbd5df2ab	-0.054186504
132	0x3d3b456e	0.04572051
133	0x3c35764c	0.011075567
134	0x3c362bc2	0.011118831
135	0x3c717d53	0.014739352
136	0xbe0be346	-0.13660917
137	0x3bc709ee	0.0060741818
138	0xbc6b8632	-0.014375256
139	0xbdd9aea6	-0.10629015
140	0xbcd148ad	-0.02554735
141	0xbd6e26a6	-0.058142327
142	0xbd963c84	-0.07335761
143	0xbd45c5aa	-0.04828421
144	0xbd40bca3	-0.047054898
145	0x3d8fdeab	0.070248924
146	0x3d336ef9	0.043807004
147	0xbc63b976	-0.013899198
148	0xbd9a8419	-0.07544727
149	0xbd1f3796	-0.03887137
150	0x3a4b8b3c	0.0007764583
151	0x3d84de42	0.06487705
152	0xbc872568	-0.016497329
153	0x3d1de299	0.03854618
154	0x3d0063fa	0.031345345
155	0xbd227130	-0.039658725
156	0xbd4e6c38	-0.050396174
157	0xbd9b7704	-0.0759106
158	0xb9bbae19	-0.00035797132
159	0x3d1b65af	0.03793877
160	0xba0bbe23	-0.0005330762
161	0x3dd0c86f	0.1019448
162	0xbd193b68	-0.03741017
163	0xbd9f878d	-0.07789526
164	0x3b16cf3c	0.0023011705
165	0xbc72a20f	-0.014809146
166	0xbc49ac72	-0.012309181
167	0x3d82b0ee	0.06381403
168	0xbb69d130	-0.0035677664
169	0x3da058ce	0.07829438
170	0x3c4f169d	0.012639669
171	0xbd0fc638	-0.035101146
172	0x3d0e75ba	0.03478024
173	0xbd95223d	-0.07281921
174	0xbbadc79a	-0.0053033354
175	0xbacaa242	-0.0015459734
176	0x3c9858d7	0.01859705
177	0xbdb364aa	-0.087594345
178	0xbc73a6db	-0.014871324
179	0xbd2c0e47	-0.042005803
180	0x3d33fc6f	0.04394191
181	0x3c561c6d	0.013068301
182	0x3ce1df2b	0.027572235
183	0x3d217166	0.039414786
184	0xbceabcf3	-0.028654551
185	0xbc3daba9	-0.0115765715
186	0x3d61bf91	0.055114333
187	0xbda435f5	-0.08018104
188	0xbd838242	-0.06421329
189	0xbbbe731c	-0.005812062
190	0xbd2fe6ce	-0.042944722
191	0x3b8a06b3	0.0042122244
192	0x3d7e929f	0.062151548
193	0xbca3c556	-0.019991558
194	0xbd9792c8	-0.07401043
195	0xbd530068	-0.05151406
196	0x3d861285	0.06546501
197	0xbc9ef4a8	-0.01940377
198	0xbd365b74	-0.04452081
199	0x3d015381	0.031573776
200	0x3c537ed3	0.012908655
201	0xbd986ffd	-0.07443235
202	0x3d8ceb93	0.0688087
203	0x3d50779b	0.050895315
204	0x3d8e88ab	0.06959661
205	0x3d0d6700	0.034522057
206	0xbcd26e4c	-0.02568736
207	0xbd1c2dc8	-0.038129598
208	0x3ceadb43	0.028669005
209	0xbccc776f	-0.024959294
210	0x3c1bc110	0.009506479
211	0xbdb5f41d	-0.088844515
212	0xbd397b95	-0.045283873
213	0x3cb1b5c8	0.021693125
214	0xbbe3ef20	-0.006955996
215	0xbd3c9e04	-0.046049133
216	0xbdb75986	-0.08952622
217	0x3d487389	0.048938308
218	0xbd2527a6	-0.040321015
219	0xbdd37c4b	-0.103264414
220	0x3d72874f	0.05921107
221	0x3d7f9e3a	0.062406756
222	0xbd3bf881	-0.04589129
223	0xbd631a46	-0.05544498
224	0x3daf9b06	0.0857449
225	0xbbaa5618	-0.0051982515
226	0xbd5bd009	-0.053665195
227	0x3d634f2a	0.05549542
228	0xbc64151d	-0.013921049
229	0x3c093009	0.008373269
230	0xbd1ef008	-0.03880313
231	0xbd972419	-0.07379932
232	0xbd67a209	-0.056551013
233	0xbbb85f53	-0.005626598
234	0xbd92e4fc	-0.071725816
235	0x3d95246d	0.07282338
236	0x3a983195	0.0011611456
237	0xbd37f966	-0.04491558
238	0x3caa3c0b	0.020780584
239	0xbd9c525f	-0.076328985
240	0xbd5d387e	-0.054008953
241	0x3ca1cad6	0.01975004
242	0xbd92596d	-0.07145963
243	0x3d2bf691	0.04198319
244	0xbb9c0731	-0.0047615995
245	0xbda880d8	-0.082277
246	0xbdc13812	-0.09434523
247	0x3cb5c2d3	0.022187626
248	0x3d1a9446	0.03773906
249	0xbce60c8a	-0.028082151
250	0xbda9bc74	-0.08287898
251	0xbd0a29ee	-0.033731394
252	0xbb27fb77	-0.0025632062
253	0xbc0611f1	-0.0081829885
254	0x3c43617f	0.0119251
255	0x3a68fc43	0.00088876876

conv2.bias f4 [16]
0	0x3ca51b37	0.020154579
1	0xbd9b4211	-0.075809605
2	0xbcec878d	-0.02887323
3	0xbcccb26d	-0.024987424
4	0x3c18eddd	0.009334055
5	0x3d0e21f2	0.03470034
6	0xbc12c6d4	-0.008958537
7	0xbcdf9025	-0.027290413
8	0x3d4e6719	0.05039129
9	0xbdc06a43	-0.09395268
10	0x3d70928a	0.0587335
11	0xbbf379c5	-0.0074302875
12	0x3d6cc72e	0.05780714
13	0x3d9339bc	0.07188746
14	0x3c758b91	0.0149868885
15	0x3cfd3eca	0.03091373

conv3.weight f4 [16, 16, 3, 3]
0	0xbbe9e5f9	-0.0071380106
1	0x3dc9c3c7	0.09851795
2	0x3db451e6	0.088046834
3	0x3cb4b355	0.022058168
4	0x3d8567fc	0.06513974
5	0x3cf3fb66	0.029782962
6	0x3dc97315	0.09836403
7	0x3d831630	0.06400716
8	0x3dbca0ce	0.092103586
9	0xbd8711c7	-0.06595188
10	0x3dba7463	0.0910423
11	0x3d2766d7	0.04086956
12	0x3d4e37f4	0.05034633
13	0x3ce8fbf1	0.028440448
14	0x3d83d8f9	0.064378686
15	0x3db50df1	0.0884055
16	0x3b3cc889	0.0028806052
17	0xbd7983ce	-0.060916714
18	0x3dde3765	0.108504094
19	0x3bc5f31f	0.006040945
20	0xbca2904f	-0.019844202
21	0x3d979ff7	0.07403558
22	0x3d7afc20	0.0612756
23	0x3cd268f1	0.025684806
24	0x3c4233e5	0.011853193
25	0xbbae8bd1	-0.005326726
26	0x3db22ceb	0.08699974
27	0x3d87ba72	0.066273585
28	0x3d881e15	0.06646363
29	0x3d807479	0.062722154
30	0xbd9ab75e	-0.07554506
31	0x3c88db0d	0.016706014
32	0xbd4dcff8	-0.050247163
33	0x3ccd158f	0.025034694
34	0xbd9919d0	-0.074756265
35	0xbd90d771	-0.07072342
36	0xbd2d8122	-0.04235948
37	0x3dbd23b2	0.09235324
38	0x3d5d6fbd	0.05406164
39	0x3d234642	0.039861925
40	0x3d622b47	0.055217054
41	0x3c532209	0.012886533
42	0x3c452d44	0.012034718
43	0xbc6adb7b	-0.014334555
44	0x3cb5e0db	0.022201946
45	0xbce9fe73	-0.028563714
46	0x3cce8ab2	0.02521262
47	0x3db58202	0.08862688
48	0xbd47f3b1	-0.048816387
49	0x3d7a469f	0.061102506
50	0xbd287d6e	-0.041135244
51	0xbc90a865	-0.017658422
52	0x3d0841b8	0.0332658
53	0x3d012e94	0.03153856
54	0x3d4a1989	0.04934076
55	0xbbf463d4	-0.0074581895
56	0xbd3b568e	-0.04573684
57	0xbdb21ab8	-0.086965024
58	0xbc9894e7	-0.01862569
59	0xbd80d378	-0.062903345
60	0xbde890ee	-0.11355768
61	0xbd2dd27d	-0.042437065
62	0x3bbff4af	0.005858026
63	0xbcc18c49	-0.023626463
64	0xbc811b55	-0.015760103
65	0x3db5b43d	0.08872268
66	0x3de20c58	0.11037511
67	0x3bf2a07c	0.007404385
68	0xbd1abe1e	-0.037778966
69	0x39a527c1	0.0003150087
70	0x3d86fa40	0.065907
71	0x3d6afd74	0.057370618
72	0xbdb1b973	-0.0867795
73	0xbe03b1ba	-0.12860766
74	0xbddefc08	-0.10887915
75	0xbd887634	-0.066631705
76	0x3bda4428	0.006660957
77	0xbdde2bdc	-0.10848209
78	0xbc70d38d	-0.014698875
79	0xbd4c3439	-0.04985449
80	0xbdb40e10	-0.08791745
81	0xbd6ef785	-0.05834152
82	0x3dda80be	0.10669087
83	0xbca4f0b7	-0.020134313
84	0x3d8a9515	0.067667164
85	0xbc94009c	-0.018066697
86	0xbdd02f78	-0.10165304
87	0xbd6ab61f	-0.05730259
88	0xbd8b60a8	-0.06805545
89	0xbcb37174	-0.021904685
90	0x3cb5e268	0.022202685
91	0x3dc1bc65	0.094597615
92	0xbd605f83	-0.054778587
93	0x3d8e7828	0.06956512
94	0x3db6d45d	0.08927224
95	0x3c9529fd	0.018208498
96	0xbcdfc1d0	-0.027314097
97	0x3c958711	0.018252881
98	0x3d0998f9	0.03359315
99	0x3d790691	0.060797278
100	0xbbcaed55	-0.006192843
101	0xbc1beb61	-0.009516568
102	0xbcab492a	-0.02090891
103	0xbd887002	-0.06661989
104	0x3d360f6e	0.04444831
105	0xbd433c67	-0.047665026
106	0xbcf1a789	-0.029498832
107	0x3c3fce60	0.0117069185
108	0x3db1bf5e	0.086790785
109	0x3dbcb302	0.092138305
110	0xbd31a78c	-0.043372676
111	0x3db8aed2	0.09017719
112	0x3db429b0	0.08797014
113	0x3da67902	0.08128549
114	0x3cb7472d	0.022372806
115	0x3d9f705f	0.07785105
116	0x3d53e2d3	0.05172999
117	0xbce24ea0	-0.027625382
118	0xbc73b87e	-0.014875529
119	0x3cf7624b	0.030198237
120	0xbd0431f3	-0.032274198
121	0xbb89b16b	-0.004202058
122	0x3dba0ce7	0.09084492
123	0x3d8099f6	0.06279366
124	0x3dbd4909	0.09242446
125	0x3cb4143a	0.021982301
126	0xbcdd1ea9	-0.026992159
127	0x3d8a1e81	0.067440994
128	0x3ca4c685	0.020114193
129	0x3cc511df	0.024056373
130	0xbcdd8fd4	-0.027046122
131	0x3d3c4808	0.04596713
132	0xbd5ce5be	-0.053930037
133	0x3d929853	0.0715796
134	0x3da58fe4	0.080840856
135	0x3d64039f	0.055667516
136	0x3db48944	0.08815244
137	0x3d979ebb	0.07403322
138	0xbc2f6e87	-0.010707504
139	0xbd5c6bd7	-0.05381378
140	0x3d00b2b5	0.03142043
141	0x3d93574a	0.071943834
142	0x3bf19495	0.0073724487
143	0x3cd054bb	0.025431028
144	0x3dc05687	0.09391504
145	0x3d89aa0e	0.067218885
146	0x3dcb41d7	0.09924667
147	0x3d21bc13	0.039486002
148	0x3d076851	0.03305847
149	0x3becd9b7	0.007228102
150	0x3c63e8c2	0.013910474
151	0xbca3637d	-0.0199449
152	0x3da66f83	0.08126738
153	0x3da9eb77	0.082968645
154	0x3d0e6425	0.034763474
155	0x3ba279de	0.0049583754
156	0xbca3cd19	-0.01999526
157	0xbd9be069	-0.07611162
158	0xbc3e6990	-0.011621848
159	0xbd53b99d	-0.051690686
160	0xbd5ff8f9	-0.0546808
161	0xbc452c98	-0.012034558
162	0x3aa81648	0.0012824023
163	0x3d163720	0.036673665
164	0xbd02145e	-0.031757705
165	0x3d8f1abb	0.0698752
166	0xbd8486a6	-0.06470995
167	0xbca75e82	-0.020430807
168	0xbcbe5138	-0.023232087
169	0x3c543cb6	0.012953928
170	0x3d421c68	0.04739037
171	0x3c5743e5	0.013138746
172	0x3d14fc7c	0.0363736
173	0x3afbc612	0.001920881
174	0xbd9954cf	-0.07486879
175	0xbbd6d38a	-0.006555979
176	0x3d5ea0c2	0.05435253
177	0xbdc6f1ce	-0.09714089
178	0xbd648283	-0.05578853
179	0x3d368982	0.04456473
180	0x3db32af4	0.08748427
181	0x3cc694ec	0.024240933
182	0x3c919073	0.017769074
183	0x3d655d80	0.05599737
184	0x3d57e8fc	0.052712426
185	0xbd15aa3d	-0.036539305
186	0x3ca1fedc	0.019774847
187	0xbd17e6a3	-0.037085187
188	0xbd0ea3fa	-0.03482435
189	0xbb36a1c4	-0.0027867416
190	0x3c41609c	0.011802819
191	0x3db0e565	0.086375035
192	0x3cc48f37	0.023994071
193	0x3b74089b	0.0037236575
194	0x3c895878	0.016765818
195	0x3d676ae1	0.056498412
196	0xbc241d02	-0.010016682
197	0x395f82a1	0.000213156
198	0xbcfc294b	-0.030781409
199	0xbd811c51	-0.06304229
200	0x3b6c6a43	0.003607408
201	0xbdf75e77	-0.120785646
202	0xbc72d5fd	-0.014821527
203	0xbc289826	-0.010290181
204	0x3c9f4188	0.019440427
205	0xbde09d0b	-0.109674536
206	0x3cfff38c	0.031244062
207	0x3d42922f	0.047502693
208	0xbcc7dd9a	-0.02439766
209	0x3db31b17	0.08745401
210	0xb9cf40cd	-0.00039530397
211	0xbd327a75	-0.043573815
212	0x3c1a5954	0.009420712
213	0x3d832e37	0.06405299
214	0xbd4bc9a9	-0.049752865
215	0x3c3fe8f5	0.011713256
216	0x3b0b3f9b	0.0021247629
217	0xbd9f64a8	-0.077828705
218	0xbd88941e	-0.06668876
219	0xbd58d425	-0.05293669
220	0xbdcb1e5f	-0.09917902
221	0x3c5923bd	0.01325315
222	0xbddae5b2	-0.10688342
223	0xbd64627c	-0.055757985
224	0xbcfed404	-0.031106956
225	0xbd2bf088	-0.041977435
226	0x3cdc1381	0.026864769
227	0xbd9576e9	-0.07298071
228	0x3dadbe5f	0.08483576
229	0x3cb5642f	0.022142498
230	0xbc64ec5b	-0.013972367
231	0xbd700dec	-0.058607027
232	0xbc6d141a	-0.014470125
233	0x3c970d79	0.018439041
234	0xbccad55c	-0.02475994
235	0x3c654d39	0.013995462
236	0xbd5a6c5a	-0.05332599
237	0xbd8ccf3d	-0.06875465
238	0x3bf82e0c	0.0075738486
239	0x3dbc0e33	0.09182396
240	0x3c278076	0.010223499
241	0x3d2629e0	0.04056728
242	0xbc79f8bd	-0.015257058
243	0xbbf77e83	-0.007552923
244	0x3c7d86d5	0.015474041
245	0xbc37a5a0	-0.011208922
246	0x3d80ea09	0.06294639
247	0x3d8c53c5	0.06851915
248	0xbd275bec	-0.040859148
249	0x3d134ad7	0.035960045
250	0xbcaf6ea5	-0.021415064
251	0xbcd8c984	-0.026463278
252	0x3bd8df21	0.006618396
253	0xbbb683bb	-0.0055699027
254	0xbccf3ac9	-0.025296586
255	0x3cc1a81d	0.023639733

conv3.bias f4 [16]
0	0x3d943ad2	0.072377816
1	0x38a01594	7.633414e-05
2	0x3dd1a5d5	0.10236708
3	0x3d55993f	0.0521481
4	0xbca76699	-0.020434665
5	0x3d5c89fb	0.053842526
6	0xbc965011	-0.018348726
7	0x3da05dfe	0.078304276
8	0xbbf0ef70	-0.007352762
9	0xbd76d5e8	-0.06026259
10	0xbca67339	-0.020318614
11	0x3dae17ec	0.085006565
12	0x3d5429b5	0.051797587
13	0xbd8c373c	-0.068464726
14	0xbd80e487	-0.06293588
15	0x3cab7770	0.020930976

conv4.weight f4 [16, 16, 3, 3]
0	0xbd87aebd	-0.066251256
1	0xbd3eafe5	-0.046554465
2	0xbe0427e8	-0.12905848
3	0xbb0005e5	-0.0019534763
4	0xbd69e24c	-0.05710058
5	0xbd50d448	-0.050983697
6	0x3aafb415	0.0013405109
7	0xbcd125a5	-0.025530646
8	0xbe00e840	-0.12588596
9	0x3d3513fe	0.04420852
10	0x3d555325	0.052081246
11	0xbe06e259	-0.13172282
12	0x3d85a21c	0.065250605
13	0xbd4eb990	-0.050469935
14	0xbb46219a	-0.003023243
15	0xbd088d7b	-0.03333805
16	0xbd2ad7ad	-0.04170959
17	0xbddcd46b	-0.10782703
18	0x3dbe8e26	0.093044564
19	0x3d49d3a6	0.04927411
20	0x3d14b53f	0.036305662
21	0x3cd1e2ed	0.025620902
22	0x3dc37222	0.095432535
23	0x3dfc257b	0.12311836
24	0xbc407ba7	-0.011748231
25	0xbd04a50c	-0.032383963
26	0xbc26424b	-0.010147641
27	0xbd0a24bd	-0.033726443
28	0xbd411b23	-0.04714502
29	0xbc4fdb4c	-0.012686562
30	0xbc5eef71	-0.013606892
31	0x3c935493	0.017984664
32	0x3d209ed9	0.03921399
33	0x3d86d289	0.06583125
34	0xbd27a2c3	-0.040926706
35	0xbd4f5746	-0.05062034
36	0xbd9ecc29	-0.07753784
37	0xbe0ae165	-0.13562544
38	0xbddcf096	-0.107880756
39	0xbdd34464	-0.10315779
40	0xbb37695c	-0.0027986383
41	0xbe035230	-0.12824321
42	0xbe0b4d81	-0.13603784
43	0xbe045214	-0.12921935
44	0xbd2dad44	-0.042401567
45	0xbb874c3d	-0.0041289614
46	0xbd3d3856	-0.046196304
47	0x3dc6cb2b	0.0970672
48	0xbb8ba0f5	-0.004261131
49	0x3d228c24	0.03968443
50	0x3dd23c07	0.102653556
51	0x3d8cacca	0.068688944
52	0xbcd8f349	-0.026483195
53	0x3df1df8e	0.11810218
54	0x3bbe5002	0.0058078775
55	0xbb304d50	-0.002690155
56	0xbc9b5bc1	-0.01896465
57	0x3d85c4c6	0.06531672
58	0x3d8026dc	0.06257412
59	0x3b805a75	0.0039170333
60	0x3de295f7	0.1106376
61	0x3d7f868d	0.062384177
62	0xbd5cc14c	-0.05389528
63	0xbb391e26	-0.002824673
64	0x3ddd32be	0.10800694
65	0xbca4d7b0	-0.020122379
66	0xbd3affc8	-0.04565409
67	0x3db99ddb	0.09063312
68	0x3d9813f2	0.07425679
69	0x3d4d62c3	0.050143015
70	0x3def5887	0.11686807
71	0x3d6d0b0e	0.05787187
72	0x3d02389a	0.03179226
73	0xbe125ef6	-0.14294037
74	0xbe205bf1	-0.15660073
75	0xbd733963	-0.0593809
76	0x3d570c96	0.052502237
77	0xbe38cb6f	-0.18046354
78	0xbd265485	-0.040607948
79	0xbd614e9d	-0.055006612
80	0xbdcb50ca	-0.09927519
81	0xbd144bed	-0.03620522
82	0x3cea7702	0.0286212
83	0xbc1479c3	-0.009062233
84	0x3d251e74	0.040312245
85	0x3d04746b	0.032337587
86	0xbbb7010a	-0.0055848407
87	0x3c7d296b	0.015451769
88	0xbcd88a44	-0.026433118
89	0xbb2f60f5	-0.0026760672
90	0xbd4cc634	-0.04999371
91	0xbdc3fb52	-0.0956942
92	0xbdaf038b	-0.08545598
93	0xbdb8b232	-0.09018363
94	0x3d6f73d3	0.058460068
95	0xbdb68b04	-0.08913234
96	0xbdbbf613	-0.09177794
97	0xbd5d0fa0	-0.05396998
98	0xbe142449	-0.14466967
99	0xbd0978ac	-0.033562347
100	0x3d8fab42	0.07015087
101	0x3ce6762c	0.02813252
102	0xbc374717	-0.011186383
103	0x3da113cb	0.07865103
104	0x3de24d94	0.11049953
105	0x3d478363	0.048709285
106	0x3a659b44	0.0008758793
107	0x3dbd8b1b	0.09255048
108	0xbd545989	-0.0518432
109	0xbd8ee3c4	-0.069770366
110	0xbd84b537	-0.064798765
111	0xbd1acf94	-0.03779562
112	0x3d958df7	0.07302468
113	0xbd5cb3b4	-0.053882316
114	0xbdd4bbc1	-0.10387374
115	0xbd47375f	-0.04863679
116	0x3bafd091	0.005365439
117	0x3d1398b3	0.036034297
118	0xbd64f95b	-0.055901866
119	0xbd707186	-0.058702014
120	0xbcc23d56	-0.023710888
121	0x3bae9d40	0.0053288043
122	0xbd8c734b	-0.06857928
123	0x3d1d235e	0.038363807
124	0xbc801fc6	-0.01564015
125	0x3d468ee8	0.04847613
126	0x3cccb00b	0.024986288
127	0xbc812439	-0.015764343
128	0xbb93308d	-0.0044918717
129	0x3cad1776	0.021129351
130	0xbd367128	-0.044541508
131	0xbc9450e4	-0.018104978
132	0x3d2febaa	0.042949356
133	0xbd98537c	-0.074377984
134	0xbc87e816	-0.01659016
135	0xbb09259e	-0.0020926963
136	0xbdb6f6ff	-0.089338295
137	0x38fd27f2	0.000120714205
138	0x3c9a0e6d	0.018805707
139	0xbccbaf28	-0.024863794
140	0xbd167f85	-0.036742706
141	0x3d968e73	0.07351389
142	0x3cfc1256	0.030770462
143	0xbdd85dfb	-0.105648
144	0x3d62e8fe	0.05539798
145	0x3db6bb82	0.08922483
146	0x3da8a35e	0.08234285
147	0xbd430b00	-0.047617912
148	0x3d9975c3	0.074931644
149	0xbcf3b1eb	-0.029747924
150	0xbd8ef351	-0.06980003
151	0x3d4cf785	0.05004074
152	0xbd75256b	-0.059850138
153	0x3daced26	0.0844367
154	0x3dae9bb3	0.08525791
155	0xbd532ac9	-0.051554475
156	0x3d502491	0.050816122
157	0xbcf6b374	-0.030114867
158	0xbd08bb0f	-0.033381518
159	0xb840977f	-4.591746e-05
160	0x3aac266f	0.0013134013
161	0xbdaad4c0	-0.0834136
162	0x3e1268ae	0.14297745
163	0x3df1daf2	0.11809339
164	0x3c613caa	0.013747374
165	0x3dda8bdb	0.106712066
166	0x3da5326a	0.08066256
167	0x3de515d7	0.11185806
168	0x3d94421d	0.072391726
169	0x3dc95778	0.098311365
170	0x3dbf0142	0.09326412
171	0x3db69cbb	0.08916613
172	0x3cb166d0	0.02165547
173	0x3d99fb03	0.0751858
174	0x3cb63655	0.022242704
175	0x3d0bad36	0.034100734
176	0xbb973050	-0.0046139136
177	0xbab206ff	-0.0013582407
178	0xbd6b974f	-0.057517346
179	0x3dabdeed	0.08392129
180	0xbd2e1e63	-0.042509448
181	0x3d360192	0.04443509
182	0x3cc1a001	0.023635866
183	0x3d3a59d3	0.04549582
184	0xbdbb92fe	-0.09158896
185	0xbc5582c1	-0.013031662
186	0xbdc65a8b	-0.096852385
187	0xbdb317c1	-0.08744765
188	0x3c88b024	0.016685553
189	0xbafb823a	-0.0019188591
190	0x3d9b7daa	0.07592328
191	0x3da60cf0	0.081079364
192	0x3c982cc0	0.018576026
193	0xbbc57343	-0.006025703
194	0x3d94f535	0.07273332
195	0x3dc5a7ec	0.09651169
196	0x3cd30e42	0.025763635
197	0xbd640bb0	-0.05567521
198	0x3d36d0a6	0.044632576
199	0xbb6541ec	-0.003498192
200	0xbd4b5fce	-0.049651913
201	0x3ceaa431	0.028642746
202	0x3c7587d2	0.014985995
203	0x3c8c6f2c	0.017142855
204	0x3dc6afa8	0.097014725
205	0x3d66a6af	0.056311306
206	0x3d842e03	0.064540885
207	0x3dba564a	0.090984896
208	0x3d8e2da8	0.06942302
209	0x3de52a21	0.11189676
210	0x3c01c465	0.007920359
211	0x3e1bb800	0.15206909
212	0x3da2de56	0.079525635
213	0xbb9cfec8	-0.0047911145
214	0x3cd6c3b6	0.02621637
215	0x3de10245	0.10986761
216	0x3c778139	0.015106493
217	0x3d1512eb	0.036394995
218	0xbda76bf0	-0.08174884
219	0xbc8686de	-0.016421732
220	0x3d010dcf	0.03150731
221	0x3d166ee6	0.036726855
222	0xbc9992fc	-0.018746845
223	0xbde24890	-0.110489964
224	0x3d695e0c	0.056974456
225	0x3dc88887	0.097916655
226	0x3de057cd	0.10954247
227	0x3e11e6c7	0.14248191
228	0x3dc34bd2	0.09535946
229	0x3d6efe41	0.058347944
230	0x3e1660b1	0.14685322
231	0x3d96cb1e	0.0736296
232	0x3d993d26	0.07482366
233	0x3cfc971d	0.030833775
234	0x3d7101cc	0.058839604
235	0xbd2a69f4	-0.04160495
236	0x3d94950a	0.072549894
237	0xbd814577	-0.063120775
238	0xbcaca6c4	-0.021075614
239	0xbd2aa59d	-0.041661847
240	0xbd85aa93	-0.06526675
241	0xbd66600f	-0.056243952
242	0x3d068e53	0.032850575
243	0x3da8c448	0.08240563
244	0x3d34f228	0.04417625
245	0xbc312b4d	-0.010813546
246	0x3c50dd96	0.012748143
247	0x3dd3db9a	0.1034462
248	0x3c94ca27	0.0181628
249	0xbc415d77	-0.011802069
250	0x3c4e425f	0.012589066
251	0x3cf916e6	0.030406427
252	0xbcb0efc6	-0.021598708
253	0x3d6e1fed	0.058135916
254	0x3c535b13	0.012900132
255	0x3db3ca34	0.087788016

conv4.bias f4 [16]
0	0xbcf77023	-0.030204838
1	0xbcae7fd7	-0.021301193
2	0xbd6846e6	-0.05670824
3	0xbd059432	-0.032612033
4	0x3d114b38	0.035472125
5	0x3ce2fe1b	0.027709058
6	0xbd954517	-0.072885685
7	0xbbe44b31	-0.0069669713
8	0xbd938672	-0.07203378
9	0xbda297cd	-0.0793911
10	0xbd29c930	-0.041451633
11	0xbc866de8	-0.01640983
12	0x3d11e0bd	0.035614718
13	0x3d134cb6	0.03596183
14	0x3bda30a6	0.0066586314
15	0x3d73d98c	0.05953364

conv5.weight f4 [2, 16, 3, 3]
0	0x3d056140	0.032563448
1	0x3d1b86c4	0.03797032
2	0x3e0a232d	0.13489981
3	0x3d4cc687	0.049994018
4	0x3dcadbc7	0.099052005
5	0x3c7ed9dd	0.015554872
6	0x3dbea1d0	0.09308207
7	0x3dd9b493	0.10630145
8	0x3df7f997	0.12108152
9	0xbd8859dd	-0.06657765
10	0xbdc125af	-0.09431016
11	0xb950b2e9	-0.00019903075
12	0xbcddbea7	-0.02706845
13	0x3d8184a9	0.06324131
14	0xbd237361	-0.039904956
15	0xbd4288c0	-0.047493696
16	0x3ac175fb	0.0014759892
17	0xbd9de8cb	-0.07710417
18	0xbda02893	-0.07820239
19	0x3d4bb137	0.049729552
20	0x3c237366	0.009976244
21	0x3c397738	0.011319928
22	0xbca61a4f	-0.020276217
23	0x3d13078f	0.03589588
24	0xbd2da971	-0.04239792
25	0x3c570ca8	0.013125576
26	0x3c8c2063	0.017105287
27	0x3d152070	0.036407888
28	0xbd2b4e06	-0.041822456
29	0xbd8434aa	-0.064553574
30	0xbccedb3b	-0.025251022
31	0xbd6742ac	-0.056460068
32	0xbd77455a	-0.060368873
33	0xbc9909ab	-0.018681368
34	0x3b082ba5	0.0020777967
35	0x3cb1e416	0.021715205
36	0xbd0b9da6	-0.034085892
37	0xbd26159c	-0.040547952
38	0xbc0d4f7d	-0.0086249085
39	0x3d8077bc	0.062728375
40	0x3d7da9f0	0.061929643
41	0x3dc19131	0.09451521
42	0x3d4305e4	0.04761304
43	0x3d96c8b5	0.073625006
44	0x3c4fbe58	0.012679659
45	0xbc42e3a7	-0.011895097
46	0x3d8eb9c5	0.069690265
47	0x3def8a86	0.11696343
48	0x3c481815	0.012212773
49	0x3d30fc45	0.043209333
50	0xbcebbe17	-0.028777165
51	0x3dbda417	0.09259813
52	0xbd2feaed	-0.042948652
53	0x3aab6bcd	0.0013078392
54	0x3c3a5cce	0.011374665
55	0xbcec325d	-0.028832609
56	0x3c2c9a46	0.0105348285
57	0xbd166722	-0.03671945
58	0x3dbace56	0.09121387
59	0xbd1b649d	-0.03793775
60	0x3cbfe930	0.023426622
61	0xbd8f0f0a	-0.0698529
62	0x3cb3f261	0.021966161
63	0x3d8d9aa2	0.069142595
64	0xbd1e3e4d	-0.038633633
65	0xbb158c26	-0.002281913
66	0x3c266536	0.0101559665
67	0x3c246006	0.010032659
68	0x3ced7dbf	0.028990624
69	0x3da4eae6	0.08052616
70	0xbc93dac4	-0.018048652
71	0x3cd42487	0.025896324
72	0xbd60636a	-0.05478231
73	0xbd2c6172	-0.04208512
74	0xbd283b63	-0.04107226
75	0x3cf2f12c	0.029656015
76	0x3d07c59c	0.03314744
77	0x3dd22da5	0.10262612
78	0x3d318b65	0.043345828
79	0x3c01ff09	0.00793434
80	0xbce346bf	-0.027743695
81	0x3add368b	0.0016877217
82	0xbd3d5e5c	-0.046232566
83	0x3b9b2fe4	0.0047359336
84	0xbcb8866e	-0.022525039
85	0xbd7f6ee7	-0.062361624
86	0xbb25b6e1	-0.0025286006
87	0x3d03c1eb	0.032167356
88	0xbc7b802b	-0.015350382
89	0x3ac81a56	0.0015266638
90	0xbe05a722	-0.13052037
91	0xbdbc8ce0	-0.09206557
92	0xbe2371c5	-0.15961368
93	0x3d1492f8	0.036272973
94	0x3c31f414	0.010861415
95	0xbe1659b3	-0.14682655
96	0xbdd55012	-0.10415663
97	0xbe00fc39	-0.12596215
98	0xbcc537f2	-0.024074528
99	0x3cd3ef25	0.025870869
100	0xbd8c157e	-0.06840037
101	0xbc9486b3	-0.018130636
102	0x3d94bce4	0.072625905
103	0x3bb0b042	0.0053921053
104	0xbda8234e	-0.08209859
105	0x3cab233d	0.020890826
106	0x3da241f9	0.079227395
107	0x3da401c0	0.08008146
108	0x3cc534f5	0.024073103
109	0xbb91b3ec	-0.004446497
110	0x3cd0e87a	0.025501478
111	0x3da0f3f1	0.07859028
112	0x3d66d5a1	0.056356076
113	0xbd5becb4	-0.053692535
114	0x3d6de98a	0.05808405
115	0x3d8eda89	0.06975276
116	0xbd6f3fbf	-0.058410402
117	0xbd2cf912	-0.04222972
118	0x3d9a3d5d	0.07531235
119	0x3d7807a4	0.06055416
120	0xbd5e0361	-0.05420244
121	0x3d2f160f	0.042745646
122	0x3d89582f	0.06706273
123	0x3cf81b77	0.030286534
124	0x3d6f7278	0.058458775
125	0x3d1b72ab	0.037951153
126	0x3d13fb03	0.036128055
127	0x3d80c0d8	0.06286782
128	0xbc6e6ebd	-0.014552769
129	0x3c761c4a	0.015021393
130	0xbbb74d03	-0.0055938973
131	0xba6ead89	-0.0009104838
132	0x3d3270b3	0.04356451
133	0xbca8e468	-0.020616725
134	0x3bd8830e	0.00660742
135	0x3dae3a57	0.08507221
136	0x3d348bb3	0.04407854
137	0x3dc58984	0.0964537
138	0x3c443763	0.011976096
139	0xbc4b400e	-0.012405409
140	0x3db3dd72	0.08782472
141	0xbd2b7adc	-0.041865215
142	0x3d503331	0.05083007
143	0x3da12898	0.07869071
144	0xbcb0e293	-0.021592414
145	0x3b8f8958	0.0043803863
146	0x3de17949	0.110094614
147	0x3c5b802e	0.01339726
148	0xbd571417	-0.052509394
149	0xbc393703	-0.01130462
150	0xbd5b5577	-0.053548303
151	0x3bd48202	0.0064852247
152	0x3daa4e71	0.08315743
153	0xbccbd475	-0.02488158
154	0xbcf8883d	-0.030338401
155	0xbc063671	-0.008191691
156	0xbcaee9f0	-0.021351784
157	0xbd0c35d2	-0.034231015
158	0xbd3cc984	-0.046090618
159	0xbb6e2759	-0.003633937
160	0xbccd7d89	-0.025084274
161	0xbcec9dd7	-0.028883858
162	0xbcffc61d	-0.031222397
163	0x3c58b41e	0.013226537
164	0xbd26f0a5	-0.04075684
165	0xbc6d9543	-0.014500919
166	0xbc93a4b0	-0.018022865
167	0x3d477155	0.048692066
168	0x3cc74c4e	0.024328377
169	0x3cff1db4	0.031142093
170	0xbc22145b	-0.009892548
171	0xbd1a934d	-0.037738133
172	0x3ca87fd7	0.020568771
173	0xbd4e3369	-0.050341997
174	0x3c88aa80	0.016682863
175	0x3dc5d74e	0.09660207
176	0x3b32fca3	0.0027311228
177	0x3dc01dd2	0.09380688
178	0xbd1a35a6	-0.03764882
179	0x3da29051	0.079376824
180	0x3d25c92d	0.04047506
181	0xbcc4f34f	-0.0240418
182	0xbd863e0f	-0.065548055
183	0xbcda379d	-0.026637847
184	0x3d5afa95	0.05346163
185	0x3dcc0b16	0.09963052
186	0xbd6b8be5	-0.05750646
187	0xbcb730bb	-0.022362104
188	0x3d4d5d59	0.05013785
189	0x3c533aaa	0.012892405
190	0xbd1ee4a5	-0.03879227
191	0x3c125852	0.00893219
192	0x3d678d07	0.05653098
193	0xbd54c330	-0.051943958
194	0x3b4e0b97	0.0031440014
195	0x3da72eeb	0.08163246
196	0x3d912443	0.070869945
197	0xbb00f034	-0.0019674422
198	0x3db424a0	0.08796048
199	0x3cc5cff2	0.024147008
200	0x3d4f1577	0.05055758
201	0x3b4ce2cf	0.0031263118
202	0xbcac5c3f	-0.02104008
203	0x3da811a8	0.08206493
204	0xbd8b7342	-0.06809093
205	0x3d21ecf9	0.039532635
206	0xbce04db3	-0.0273808
207	0xbc5e176d	-0.01355539
208	0x3d9d0b18	0.076681316
209	0xbd821ea8	-0.063535035
210	0x3a644ba7	0.0008708783
211	0xbc7f877b	-0.015596266
212	0x3d9587e3	0.07301309
213	0xbd562afa	-0.05228708
214	0xbb861305	-0.004091623
215	0xbcb6c8c2	-0.022312526
216	0x3d96dbe3	0.07366159
217	0x3d9f2831	0.07771338
218	0x3ca2c209	0.019867914
219	0x3d4e9394	0.05043371
220	0x3dc66b7b	0.09688469
221	0xbd6471cd	-0.05577259
222	0x3ca0571f	0.019572793
223	0x3db3449d	0.08753321
224	0xbc3b304f	-0.011425092
225	0xbd8e418d	-0.069460966
226	0x3d88447e	0.06653689
227	0x3d911011	0.070831425
228	0x3d20d4c2	0.0392654
229	0x3d6d81d5	0.057985146
230	0xbc7d4e47	-0.015460557
231	0xbd6ce886	-0.05783894
232	0xbd96edaf	-0.07369553
233	0x3d0dd313	0.034625124
234	0xbd7d00be	-0.061768286
235	0x3d336b9c	0.043803796
236	0xbd541099	-0.05177364
237	0x3c4d4ca1	0.012530477
238	0xbd1100b5	-0.035401065
239	0xbda7d68c	-0.081952184
240	0xbd882f99	-0.066497035
241	0xbddd3191	-0.1080047
242	0xbe10c3cb	-0.14137189
243	0xbc064b96	-0.008196732
244	0xbd9c441c	-0.07630178
245	0xbd9e0066	-0.0771492
246	0x3d3e6837	0.046486106
247	0xbd395e19	-0.045255754
248	0x3bf7ede7	0.007566202
249	0xbc7d5675	-0.0154625075
250	0xbd694571	-0.05695099
251	0xbc9f2bf0	-0.01943013
252	0xbd178cb4	-0.03699942
253	0x3d0aefbb	0.03392003
254	0x3dc72122	0.097231165
255	0xbb2170dc	-0.002463392

conv5.bias f4 [2]
0	0xbd253c21	-0.040340547
1	0x3d259f23	0.040434968

linear.weight f4 [1, 722]
0	0x3d045b6b	0.032313745
1	0xbc2a23bd	-0.010384497
2	0xbcfb9380	-0.030709982
3	0xbcbb3edb	-0.02285712
4	0xbb9ab188	-0.0047208704
5	0xbd555dbf	-0.052091356
6	0xbd08ec84	-0.033428684
7	0xbba73a5a	-0.0051033916
8	0xbd3fc0a6	-0.046814583
9	0xbd12dd5a	-0.03585563
10	0xbcb8e69b	-0.022570899
11	0xbd4160e0	-0.047211528
12	0xbb74f72d	-0.0037378774
13	0xbd36b7d4	-0.044608906
14	0xbca1274c	-0.019672059
15	0xbcd8ae4c	-0.026450299
16	0xbbb9b932	-0.005667829
17	0x3d3df549	0.0463765
18	0xbbfcbbef	-0.007712833
19	0xbcbe0ae8	-0.02319856
20	0xbca1d545	-0.019755015
21	0xbbadb167	-0.005300689
22	0xbd103c02	-0.035213478
23	0xbcc1abf8	-0.023641571
24	0xbd517799	-0.051139448
25	0xbc1af9e2	-0.009458991
26	0xbd3b800c	-0.045776412
27	0xbc1b1616	-0.009465715
28	0x3b551d16	0.0032518557
29	0xbc5a4578	-0.013322227
30	0xbd124d7f	-0.035718437
31	0xbd19aab3	-0.037516307
32	0xbca7f83e	-0.020504113
33	0xbd389c2d	-0.045070816
34	0xbd0e2d5f	-0.034711238
35	0x3b1392e9	0.0022517985
36	0xbcd208d8	-0.025638983
37	0x3cfd675a	0.03093307
38	0xbd0640b5	-0.032776553
39	0x3c5274b0	0.012845203
40	0x3c577181	0.01314962
41	0x3c25a5f8	0.010110371
42	0xbd668d2e	-0.056286983
43	0xbd011728	-0.031516224
44	0x3c5909f7	0.013247005
45	0xbc8be03c	-0.017074697
46	0x3c074453	0.008256036
47	0x3bf82cb6	0.0075736893
48	0xbc818312	-0.01580957
49	0xbcee6564	-0.029101081
50	0xbbe9c921	-0.007134572
51	0xbbf87dae	-0.0075833416
52	0xbd1669c6	-0.036721967
53	0xbc247376	-0.010037294
54	0xbccc12d0	-0.024911314
55	0xbcde6720	-0.027148783
56	0x3d2b9f2d	0.04189985
57	0x3b6e18a3	0.0036330603
58	0xbd1c137f	-0.03810453
59	0xbd213a30	-0.039362133
60	0xbd289992	-0.04116208
61	0xbc287794	-0.010282416
62	0xbb932c0b	-0.0044913343
63	0xbd032920	-0.03202164
64	0xbcd30150	-0.025757462
65	0xbd13d24f	-0.036089238
66	0xbc240bc9	-0.010012575
67	0x3bfa6478	0.0076413713
68	0xb994e489	-0.00028399032
69	0xbd0f3922	-0.034966595
70	0xbce1f771	-0.02758381
71	0x3c0ed060	0.008716673
72	0x3ce2123d	0.027596587
73	0x3d0c81f1	0.03430361
74	0x3b5ebaad	0.003398578
75	0x3cbedd9d	0.023299033
76	0xbbbcb006	-0.0057582883
77	0xbcb43fdf	-0.022003112
78	0xbc80dbf9	-0.015729891
79	0x3c244e06	0.010028368
80	0xbcdca1e5	-0.026932666
81	0xbbfe9b5f	-0.0077699865
82	0xbcc627c4	-0.024188884
83	0xbceb63b7	-0.028734071
84	0xbd743ac3	-0.059626352
85	0x3b36b294	0.0027877437
86	0xbd1475d7	-0.036245193
87	0xbd1be11f	-0.03805649
88	0xbc8a3591	-0.016871246
89	0xbc34825e	-0.01101741
90	0xbc5df9cd	-0.013548327
91	0x3a5ea899	0.0008493751
92	0xbd0e8ba6	-0.034801148
93	0xbd074cbd	-0.033032168
94	0xbcdf22fe	-0.027238365
95	0xbd5264fe	-0.051365845
96	0xbd488c9d	-0.048962224
97	0xbb8d1aaf	-0.0043061594
98	0xbcba19c0	-0.022717357
99	0xbd646d95	-0.055768568
100	0xbd198474	-0.037479833
101	0xbd8c871e	-0.06861709
102	0xbceaf461	-0.028680982
103	0xbd3c65cd	-0.045995522
104	0xbb07ae89	-0.0020703396
105	0x3af3ff82	0.0018615576
106	0xba76afe6	-0.0009410366
107	0xbd1b1236	-0.037859164
108	0xbba6de2f	-0.0050924043
109	0xbc817683	-0.015803581
110	0x3a895959	0.0010478898
111	0xbd22283b	-0.039589148
112	0xbd8410e7	-0.06448536
113	0xbd886601	-0.06660081
114	0xbdcec2e0	-0.10095763
115	0xbd8b49f2	-0.06801213
116	0xbd9cf57c	-0.0766401
117	0xbaf4d50b	-0.0018679214
118	0xbd74e0f9	-0.059784863
119	0xbc324565	-0.010880803
120	0xbd2a6a2e	-0.041605167
121	0xbda5024a	-0.08057077
122	0xbc97983a	-0.018505204
123	0xbcd4b586	-0.025965463
124	0xbd010d0a	-0.031506576
125	0xbbc3591b	-0.00596155
126	0xbd9c4880	-0.07631016
127	0xbc449d8b	-0.012000452
128	0xbcb8cc48	-0.022558346
129	0xbc3d65e8	-0.011559941
130	0xbc43f049	-0.011959144
131	0xbd68a5b3	-0.056798648
132	0xbd45199f	-0.048120137
133	0xbd282776	-0.041053258
134	0xbd3cce29	-0.046095047
135	0xbcf097c8	-0.02936925
136	0x3ad59bc4	0.0016297032
137	0xbd35f21b	-0.044420343
138	0xbce45b98	-0.027875707
139	0x3b702e86	0.0036648824
140	0xbd4ad1ae	-0.049516372
141	0xbd010345	-0.03149726
142	0xbc9ba214	-0.018998183
143	0xbd64855f	-0.055791255
144	0xbccf1fa9	-0.025283651
145	0xbbfaf210	-0.0076582506
146	0xbd41a8f4	-0.047280267
147	0xbd5c7a19	-0.05382738
148	0xbd1529fc	-0.036416993
149	0xbc532088	-0.012886174
150	0xbd563e4f	-0.052305516
151	0xbd96c35b	-0.0736148
152	0xbcc26d0a	-0.023733635
153	0xbd89a46c	-0.06720814
154	0xbd82b988	-0.063830435
155	0x3a095859	0.00052393
156	0x3c529463	0.012852761
157	0xb9a1d547	-0.00030867217
158	0x3cb707a2	0.022342507
159	0xbca1254c	-0.019671105
160	0xbb4433af	-0.0029938032
161	0xbd49d8ac	-0.0492789
162	0xbd402fe4	-0.046920672
163	0xbc7ffa7f	-0.015623688
164	0xbd80bb68	-0.06285745
165	0xbd2e912f	-0.042618927
166	0xbc7901fa	-0.015198225
167	0x3c52619b	0.012840654
168	0xbc9b42ac	-0.01895269
169	0xbd128059	-0.035766933
170	0xbd980133	-0.07422104
171	0xbd526b05	-0.051371593
172	0xbc4e1083	-0.012577179
173	0x3ba4e5e7	0.0050322893
174	0x3c15ae44	0.009135786
175	0xbc283d01	-0.010268451
176	0xbc9f4824	-0.019443579
177	0x3c8c1c52	0.017103348
178	0xbc6d2bec	-0.014475804
179	0xbcb2b52f	-0.02181491
180	0xbc56fd14	-0.013121862
181	0xbce2dc69	-0.02769299
182	0xbcbdd070	-0.02317068
183	0xbd8b69c2	-0.06807281
184	0xbd2a2509	-0.041539226
185	0xbd2ebb09	-0.04265884
186	0x3c8a52ce	0.016885187
187	0xbbe7ecfb	-0.007077811
188	0xbc87b5da	-0.016566206
189	0xbd74884d	-0.0597003
190	0xbcf1a757	-0.02949874
191	0xbd07318d	-0.03300624
192	0xbd3a4c8f	-0.04548317
193	0x3b33df19	0.002744621
194	0xbd83ce9c	-0.06435892
195	0xb99d78ba	-0.00030035322
196	0xbd193606	-0.037405036
197	0xbd4ebf43	-0.05047537
198	0xbd7cab7d	-0.06168698
199	0xbd2ff8f3	-0.042962026
200	0xbbd48897	-0.0064860093
201	0x3cbf6fb8	0.023368701
202	0xbc7648f7	-0.015032045
203	0xbd77c64e	-0.060491852
204	0x3cb7e668	0.022448733
205	0x3d14dcce	0.03634339
206	0x3baae52b	0.005215307
207	0x3bd25678	0.0064189993
208	0xbc2ed255	-0.010670264
209	0xbce33ff4	-0.027740456
210	0xbb61218b	-0.0034352269
211	0xbd587e09	-0.05285457
212	0xbd23f375	-0.0400271
213	0xbd6f7cca	-0.058468617
214	0xbd4da079	-0.050201867
215	0xbd9eb508	-0.07749373
216	0xbcb64323	-0.02224881
217	0xbd58ad8f	-0.052899893
218	0xbb9c7562	-0.0047747353
219	0x3d140003	0.036132824
220	0x3c32432f	0.010880276
221	0xbc8ead1a	-0.017416526
222	0x3b94768c	0.0045307335
223	0xbd56d0d7	-0.05244526
224	0x3cfab085	0.03060175
225	0xbd485f3b	-0.048918944
226	0x3a8d7e26	0.0010795041
227	0xbd19c45f	-0.03754079
228	0xbd83b267	-0.06430512
229	0xbd5308f3	-0.051522207
230	0xbd7aa55d	-0.06119286
231	0xbcb57241	-0.022149207
232	0xbc3beb2c	-0.011469644
233	0xbcc44193	-0.02395705
234	0xbcb3b021	-0.02193457
235	0xbc791962	-0.015203806
236	0xbd9bef5c	-0.076140136
237	0xbc211efc	-0.009834047
238	0xbbf0d697	-0.0073498
239	0x3c5a5b81	0.01332748
240	0xbc5603d5	-0.013062437
241	0xbd14783e	-0.036247484
242	0x3b16b86c	0.0022998108
243	0xbcd0f6b0	-0.025508255
244	0xbd4dcc83	-0.050243866
245	0xbd898dd8	-0.06716508
246	0xbc9999a8	-0.018750027
247	0xbd1e0ab8	-0.03858444
248	0xbd8f1683	-0.06986716
249	0xbcf46c7b	-0.029836884
250	0xbd35b7a0	-0.04436457
251	0xbd7621ac	-0.060090706
252	0x3b2a5192	0.002598856
253	0xbbf67f1f	-0.0075224782
254	0xbaf406f5	-0.0018617796
255	0xbd35af98	-0.044356912
